image_model_weights/epoch_1/encoder_5_1_conv1_weight.npy (npy, 589952 bytes, 1 tensors)

array f4 [128, 128, 3, 3]
-0.0015689218 -0.008416441 -0.008990765 0.023856798 0.001068671 0.0045846985 0.007941261 -0.016200788
0.0030306291 -0.023028117 -0.002147112 -0.015639232 -0.018312966 0.008502907 0.005357478 0.010779412
-0.007134484 -0.012092959 -0.0015173415 0.031366937 0.022823391 -0.06149591 -0.023520013 0.002271102
0.041377105 -0.10254561 -0.059060145 0.005208417 0.010102081 0.014085808 0.009853564 0.010177974
0.019261796 -0.004392363 -0.003079021 0.009775801 -0.006140078 -0.03611566 -0.010604242 0.0113841565
0.0056104823 -0.025089057 0.0034867397 0.009667787 0.0011434902 -0.03916119 -0.0037721228 0.013111472
-0.050955676 -0.01609582 -0.026136477 0.013599779 0.011340739 0.03670767 -0.00022321427 0.03548452
0.029067723 -0.016999222 -0.016625384 -0.015479119 0.015415565 0.03471351 -0.0070767123 0.009122977
0.0061268276 -0.022539437 -0.0027027093 0.016025772 -0.04282141 -0.024532137 0.001651563 -0.013878804
0.027662732 -0.0051140036 0.0050524133 -0.035199877 0.009846204 0.029594457 -0.039215285 -0.011130996
-0.031629182 -0.018393612 0.005067531 -0.03553698 0.018427122 -0.034047257 -0.06745696 -0.023312872
-0.000331557 -0.010217861 0.0047971113 0.001534914 0.0024101778 -0.012628329 -0.014757927 -0.0044757505
-0.0020988637 -0.0024368158 0.0072039133 0.011936904 -0.008448135 0.0024152973 -0.03305242 0.0056092897
0.01020497 -0.008547924 -0.030532347 -0.0032313564 0.0040737074 -0.02267524 -0.0115185585 -0.0014474076
0.029897468 0.0037439826 -0.002480642 0.0011520851 0.0073759914 -0.0039037778 -0.03498781 -0.036915846
-0.05638061 -0.013769284 0.010909679 0.008609408 0.021295553 0.011640039 0.018064097 0.026277194
0.031059058 0.00066923804 0.0070293187 0.016860098 -0.002221752 -0.014830483 -0.008431383 -0.008034742
-0.041424826 0.0025461467 0.017422512 -0.004888304 -0.038010545 0.017305398 0.039537314 0.028261885
-0.027408343 -0.02724294 0.0007590296 -0.0098376805 0.04210595 0.027981585 -0.0021454566 -0.026123704
-0.03230339 0.018987387 0.00775122 -0.010638193 0.018648043 0.030581942 0.009134323 -0.06640472
-0.06014782 0.001144491 0.0034449443 0.015267342 -0.0186332 -0.05318915 0.015825607 0.037710596
-0.04312845 -0.019947566 -0.0011043553 -0.023431221 -0.026462216 -0.016960472 -0.01062887 -0.018578839
0.012346528 -0.012362353 0.0217535 0.020546576 0.0064185536 0.001166374 -0.035183676 0.009908673
0.03356455 -0.0062815426 -0.0064438046 -0.00064446614 -0.015336557 0.022747677 -0.011885478 0.021020401
0.009463257 -0.02420198 -0.042734914 -0.01498072 -0.032851975 -0.015272091 -0.031327523 -0.020959845
-0.010056081 -0.02088111 -0.0003521531 0.0055041444 0.038248193 -0.017883746 -0.015873387 -0.011149598
0.039149005 -0.008813259 0.041210253 -0.036413845 -0.038693428 0.023121528 0.0039926306 -0.033493884
-0.031752206 -0.039828897 -0.047072884 -0.051908847 0.019626632 0.048521366 0.0001391486 -0.012366062
-0.0026288026 -0.014805867 -0.08277662 -0.030536288 -0.037606586 0.009102325 0.02838317 0.015559512
0.0025055178 0.01211077 -0.007987841 -0.0043862257 0.010858118 -0.04851518 -0.010726862 0.023338264
0.038957335 0.00056653965 -0.008665347 0.011741554 -0.030755784 -0.01526601 0.0009046691 0.0236871
-0.023601817 -0.0030889397 -0.02366086 -0.008826548 0.01020224 0.025889294 0.005696104 0.0028466883
00000000: 48a4 cdba 1de5 09bc 004e 13bc 556f c33c
00000010: a612 8c3a 3d3b 963b 101c 023c 84b7 84bc
00000020: 859d 463b 76a5 bcbc 90b6 0cbb d91d 80bc
00000030: 1305 96bc c74f 0b3c c88d af3b 229c 303c
00000040: 64c8 e9bb 8c21 46bc 88e1 c6ba 9e7a 003d
00000050: 1ff8 ba3c 23e3 7bbd 0bad c0bc c5d6 143b
00000060: 0a7b 293d 6f03 d2bd 0de9 71bd 5eab aa3b
00000070: 3383 253c 29c8 663c d870 213c 84c1 263c
00000080: eaca 9d3c d0ed 8fbb 66c9 49bb ae2a 203c
00000090: b532 c9bb 04ee 13bd 6abd 2dbc 9d84 3a3c
000000a0: 23d8 b73b 9187 cdbc c981 643b a365 1e3c
000000b0: 2ae1 953a 7c67 20bd b835 77bb 80d1 563c
000000c0: e6b6 50bd 62db 83bc 2a1c d6bc 9cd1 5e3c
000000d0: 82ce 393c c85a 163d a00e 6ab9 3758 113d
000000e0: 6f1f ee3c f441 8bbc f531 88bc 219c 7dbc
000000f0: 9191 7c3c c12f 0e3d c4e3 e7bb 8a78 153c
00000100: 8ec3 c83b a0a4 b8bc f01f 31bb 7b48 833c
00000110: 8165 2fbd 9ff7 c8bc 4279 d83a ec63 63bc
00000120: f49c e23c 5f93 a7bb b78e a53b bf2d 10bd
00000130: f951 213c 1370 f23c 35a0 20bd c85e 36bc
00000140: 9a8d 01bd 33ae 96bc 880d a63b 398f 11bd
00000150: 7af4 963c 2375 0bbd e026 8abd a3fa bebc
00000160: d4d4 adb9 d168 27bc 1631 9d3b 2b2f c93a
00000170: 13f4 1d3b 0de7 4ebc 3bcb 71bc 51a9 92bb
00000180: 178d 09bb fcb2 1fbb ce0e ec3b 0193 433c
00000190: 0c6a 0abc f749 1e3b f961 07bd 22ce b73b
000001a0: bf32 273c 980c 0cbc f91e fabc 2ac5 53bb
000001b0: bc7c 853b 6dc1 b9bc 56b8 3cbc f1b6 bdba
000001c0: 89eb f43c 9b5d 753b 4492 22bb 9001 973a
000001d0: 4db2 f13b 86d6 7fbb 614f 0fbd 1235 17bd
000001e0: 5bef 66bd 9098 61bc 83be 323c 790e 0d3c
000001f0: 0374 ae3c ddb5 3e3c 28fb 933c 4543 d73c
00000200: 916f fe3c ce6f 2f3a 3356 e63b 301e 8a3c
00000210: d09a 11bb 8efb 72bc c923 0abc 27a4 03bc
00000220: 14ad 29bd 41dd 263b a8b9 8e3c 112e a0bb
00000230: f2b0 1bbd 0dc4 8d3c e1f1 213d 7885 e73c
00000240: 7687 e0bc 962c dfbc 9df9 463a 392e 21bc
00000250: 4a77 2c3d a339 e53c ca9a 0cbb 6101 d6bc
00000260: 8f50 04bd 708b 9b3c f2fd fd3b d14b 2ebc
00000270: c8c3 983c fb86 fa3c 21a8 153c 33ff 87bd
00000280: 8f5d 76bd bf02 963a 93c4 613b e023 7a3c
00000290: a7a4 98bc dedc 59bd b4a4 813c 6d76 1a3d
000002a0: 75a7 30bd 1469 a3bc 04c0 90ba d5f2 bfbc
000002b0: 4ac7 d8bc b0f0 8abc b624 2ebc a632 98bc
000002c0: 1749 4a3c 778b 4abc 6534 b23c 4b51 a83c
000002d0: bb52 d23b 04e1 983a c21c 10bd fd57 223c
000002e0: fb7a 093d 66d5 cdbb 8d26 d3bb 64f1 28ba
000002f0: 2f46 7bbc 5659 ba3c 4fbb 42bc fa32 ac3c
00000300: c70b 1b3c 3b43 c6bc ce0a 2fbd b271 75bc
00000310: cb8f 06bd cb37 7abc 4a51 00bd fbb3 abbc
00000320: 43c2 24bc dd0e abbc 30a1 b8b9 1c5c b43b
00000330: 23aa 1c3d ef80 92bc e808 82bc ceac 36bc
00000340: b55a 203d 7d65 10bc 15cc 283d af26 15bd
00000350: 007d 1ebd 5c69 bd3c 9dd4 823b e230 09bd
00000360: 9a0e 02bd a023 23bd 7fcf 40bd 5f9e 54bd
00000370: 08c8 a03c 57be 463d 6be8 1139 069b 4abc
00000380: fd47 2cbb 4f94 72bc ca86 a9bd 3d27 fabc
00000390: 5d09 1abd eb21 153c d283 e83c 53ed 7e3c
000003a0: 9d33 243b 406c 463c 6fdf 02bc 54ba 8fbb
000003b0: 3fe6 313c dab7 46bd b8bf 2fbc e32f bf3c
000003c0: ba91 1f3d d583 143a 19f9 0dbc a65f 403c
000003d0: 8ef3 fbbc 491e 7abc 5127 6d3a 730b c23c
000003e0: 9958 c1bc cf6f 4abb 6bd4 c1bc 3a9d 10bc
000003f0: 4c27 273c c915 d43c 62a6 ba3b 818f 3a3b
