global_model.pth (torch, 266767 bytes, 4 tensors)

projector.weight f4 [128, 512]
000000 58 44 84 3c fc 1b 53 3d 78 10 27 bd dd 09 6e 3c
       0.01614587 0.05154036 -0.04078719 0.014528719
000010 3a fd 58 3c b7 68 0c 3c 12 e4 9b bc fc 76 81 bc
       0.013243968 0.008569888 -0.01902965 -0.015803806
000020 f4 34 b5 bc 24 d3 f4 3c b4 a9 38 bc 5a 78 14 bd
       -0.022119977 0.029885836 -0.011270929 -0.03624759
000030 80 1d c8 b8 36 31 9e 3b 24 1d a7 ba 78 39 ad bc
       -9.542238e-05 0.0048276437 -0.0012749773 -0.021145567
000040 e6 13 ef 3c 58 8b 40 3d e6 37 9b bc 02 16 a0 bb
       0.029184293 0.04700789 -0.018947553 -0.004885436
000050 30 27 f6 3a 52 5b 08 bd 9a f0 5b bc b1 5d cd bb
       0.0018779989 -0.033290215 -0.013424063 -0.0062672724
000060 4a 03 53 bc a0 a7 8a bc ef c8 d4 3c f0 68 a9 3c
       -0.012879202 -0.016925633 0.025974719 0.02067992
000070 a2 cd c3 3b 98 da 83 bd b8 16 d1 3a 67 56 e5 bc
       0.005975441 -0.06438178 0.0015952205 -0.027995301
000080 72 0b 31 3c 31 58 03 3d a2 67 15 bd 94 a7 13 3d
       0.010805951 0.032066528 -0.036475785 0.036048487
000090 29 42 8b bc da c5 c2 bb 62 c5 fa 3b 52 70 65 3c
       -0.016999321 -0.005943996 0.0076529244 0.01400383
0000a0 72 bf cc bc a3 9c 32 bc 25 44 86 bc 40 ef b1 bc
       -0.024993632 -0.010901603 -0.016389916 -0.021720529
0000b0 d4 ee f0 3c e1 93 04 3d a6 e5 c3 bc d6 92 20 bd
       0.029410757 0.03236759 -0.023913216 -0.039202534
0000c0 18 0d 48 3b 30 3b b3 3a 02 b0 89 3c 9a 89 e0 bc
       0.0030525383 0.0013674255 0.01680756 -0.027409364
0000d0 0f 61 b7 3b 4b 86 16 3c fc 0e 91 3b 01 9a 5e 3c
       0.005596287 0.009187291 0.004426835 0.013586522
0000e0 4d d9 d6 bb ca 8b ee 3a 03 35 62 3c a8 e6 15 3c
       -0.006556666 0.0018199619 0.013806584 0.009149231
0000f0 64 5e 15 3c 9e 0a 2f bd dc af 26 bd 55 ab 88 bc
       0.009116743 -0.042734735 -0.040695056 -0.01668326
000100 3a 7d fb bb e6 3e 8a 3c 52 68 28 3c 1c 18 48 bb
       -0.0076748403 0.016875695 0.010278778 -0.0030531948
000110 f9 ee b9 bc 3b 87 3d 3d 44 28 00 bc d8 a9 02 3b
       -0.022696959 0.046271544 -0.0078221 0.001993766
000120 d0 53 80 3c 5c 52 9b 3c ac e9 81 bc 06 c4 88 3c
       0.015664965 0.01896017 -0.015858494 0.016695034
000130 34 48 0c bd d9 67 12 3c 60 9e 8f 39 46 27 ad 3c
       -0.034248546 0.008935892 0.00027393084 0.021136891
000140 2a 4f f0 bc 2f 8c 1a bd eb 8a c7 3b cd 9d b3 bc
       -0.029334623 -0.037731346 0.0060895584 -0.021925831
000150 14 64 32 3d 3d ee 80 bc 0d 69 4d 3c 90 36 97 3b
       0.043552473 -0.0157386 0.012537253 0.0046146587
000160 72 ad 42 3c 58 0f 51 3b 8e 23 17 bc ec 54 3f bb
       0.011882173 0.0031900015 -0.0092247855 -0.0029194904
000170 a1 80 c6 3c de 83 a4 3c 37 04 be bc 86 75 62 ba
       0.024231257 0.02008241 -0.02319537 -0.0008638728
000180 c0 b2 ad 3a c6 a5 eb 3c 7b 09 d1 3c b4 00 dd 3a
       0.0013252124 0.02876557 0.025517216 0.0016861171
000190 60 bf 95 3c d4 e8 13 3c 82 f4 c6 bb 54 06 8f 3c
       0.018279731 0.0090276785 -0.006071628 0.017459072
0001a0 38 57 c8 ba b4 59 0d 3d f6 8a b6 3a 58 b5 03 bd
       -0.0015284782 0.034509376 0.0013926912 -0.032155365
0001b0 d8 34 03 3d 58 78 84 3c b8 31 c8 3b 20 a3 63 3c
       0.032032818 0.016170666 0.0061094426 0.0138938725
0001c0 50 dd 50 3c 05 10 c9 3c 68 aa 50 bc 44 e7 1f 3d
       0.0127480775 0.024543772 -0.0127359405 0.03903891
0001d0 d6 15 45 3d 5f ab 2f 3d 91 d2 b4 bc c0 95 45 bb
       0.048116527 0.04288804 -0.022073062 -0.0030149072
0001e0 3f 08 84 3c 96 da 45 3d 2a 6b 39 3d 6a 02 f3 3c
       0.016117213 0.048304163 0.045268215 0.029664237
0001f0 3c 34 9f bc 9c b7 a2 3b 6a be 47 3d 44 f5 f4 bc
       -0.019434087 0.0049657356 0.048765577 -0.029902108
000200 b1 1f 06 bd 00 11 21 39 ff 70 9f bc ba 7f 39 3d
       -0.032745067 0.0001536049 -0.01946306 0.045287825
000210 73 07 2c 3d 54 f0 02 3d fa 9c a4 3b 80 db 9c bb
       0.04199929 0.031967476 0.005023596 -0.0047869086
000220 c9 1d 48 bd a9 e1 85 3b 0e 9c f9 3b b2 b2 36 bc
       -0.04885653 0.0040857387 0.00761748 -0.011151003
000230 48 64 45 bc 69 94 86 bc 26 4b 15 bc cc ab 3f 3c
       -0.012047835 -0.01642819 -0.009112155 0.011698674
000240 c8 d1 07 3d d2 7b fb 3c 76 3f 1e bd 26 17 56 3c
       0.033159047 0.03069869 -0.03863474 0.013067042
000250 76 9b 5c bc 50 c1 44 bd 7d 3b ec bc c0 d6 6f 39
       -0.013464799 -0.04803592 -0.02883696 0.00022872817
000260 c0 c6 ab bc c6 29 aa 3b d1 89 ce 3c 4f 31 08 3d
       -0.020968795 0.005192968 0.0252122 0.03325015
000270 a0 d0 b2 bc af e4 48 3d 4c a2 86 3b f1 27 08 bd
       -0.021827996 0.049046215 0.0041087028 -0.033241216
000280 1a 6c ef ba 2e 8f 45 bc d3 51 25 3b 0a 8b 19 bd
       -0.001826647 -0.0120580625 0.0025225773 -0.037486114
000290 34 85 28 3d 60 5b e6 3c 0a 8c 1d bd f1 45 99 3b
       0.041142657 0.028119743 -0.03846363 0.004677527
0002a0 2c cb cc ba 38 79 ab bb fe c8 5c bd 9a 5f 01 3c
       -0.0015624515 -0.0052329563 -0.05390262 0.007896328
0002b0 62 7c 8a bc f8 41 28 3c 34 43 bf 3c 74 5a dc 3c
       -0.016905013 0.010269634 0.023347475 0.0268986
0002c0 40 26 9e 3b 7d 9d 36 bc 1b d3 8e 3c 11 34 c4 bc
       0.004826337 -0.011145947 0.017434647 -0.023950608
0002d0 0a 48 01 3d 8e 55 9e 3c 82 98 66 bd 7e 45 8a 3c
       0.031562842 0.019327905 -0.056297787 0.01687884
0002e0 9d 9e 15 bd 4f e6 b8 bb 0f d9 a3 bb 09 39 92 3c
       -0.03652822 -0.0056426893 -0.0050002406 0.017849462
0002f0 92 7a 31 3b c4 56 0f bd 16 ae 52 3d 70 e5 06 bb
       0.0027081114 -0.034994856 0.051435553 -0.0020583533
000300 80 8e 13 3d 96 7c 16 3d c0 9f 47 3c b8 20 aa 3a
       0.03602457 0.03673991 0.012184083 0.0012979722
000310 7c ba 20 3c 0e 54 a3 bc 7f bd 1f 3d 41 27 f9 3c
       0.009810086 -0.019937541 0.038999077 0.030414226
000320 83 b4 81 3c 60 ff b3 3c ce f2 cd 3c 93 6d d2 3c
       0.015833145 0.021972358 0.025140192 0.025687015
000330 79 2e af bc 9c 71 16 3c 30 25 9f 3c 36 c2 9f bc
       -0.021384465 0.00918236 0.019426912 -0.019501787
000340 60 07 35 bd ce 6d 13 bc 3d 17 87 3c 34 a7 c2 bc
       -0.044196486 -0.008998347 0.016490573 -0.02376137
000350 76 99 32 bd 16 f9 ad 3b d5 30 84 bc 63 2c 02 bd
       -0.043603383 0.0053092344 -0.016136566 -0.03178061
000360 81 a6 0c bd 1d 0c bb 3c c1 f2 24 3d 99 28 3f 3c
       -0.034338478 0.022832925 0.04027057 0.011667394
000370 08 f5 17 bd 00 0f dd bc 00 73 e7 3b c8 89 a9 3b
       -0.037098914 -0.026984692 0.0070632696 0.0051738955
000380 64 02 07 3c 45 67 81 bd dd e3 35 3d 3d 04 f5 bb
       0.008240316 -0.06318525 0.04440676 -0.007477312
000390 c9 99 a2 3c 27 be d1 bc e4 f8 05 3c 9e 87 03 3d
       0.019848721 -0.025603367 0.008177016 0.032111757
0003a0 9c 46 9e bb 0a 4f 08 bd 15 be 72 bc ad 45 09 bd
       -0.0048301946 -0.033278503 -0.014815827 -0.033513714
0003b0 38 04 76 bb 62 d8 c2 bc aa c7 c6 bc fe 09 e7 3b
       -0.0037539136 -0.02378482 -0.02426513 0.0070507517
0003c0 94 15 26 3d 1b 20 1d 3d 70 c6 a0 ba 01 6c 93 bc
       0.040547922 0.038360696 -0.001226617 -0.017995836
0003d0 d2 d3 ba 3c b0 d0 88 3c 2e a4 5b 3c fa ca 91 bc
       0.022806082 0.016701072 0.013405843 -0.017796982
0003e0 f7 53 13 3d 92 bf e1 bc 48 aa 3f bd 3a cb 3f 3c
       0.035968747 -0.027557168 -0.046793252 0.011706168
0003f0 ab 19 84 3c 00 ba 9e 3b 40 87 d6 ba b4 b2 10 3c
       0.01612552 0.0048439503 -0.0016367212 0.008831669

projector.bias f4 [128]
000000 ed 82 18 bd b0 b0 ca 3c 30 ed f1 bc d6 75 09 3d
       -0.037234236 0.024742454 -0.029532045 0.033559643
000010 22 3d e8 bc 9a f8 05 bd 5f b0 09 bb 10 86 20 3d
       -0.028349463 -0.032707788 -0.0021009666 0.039190352
000020 18 eb ca bc 9e 7e df bc 9a 0b 16 bd fa b9 95 bc
       -0.024770305 -0.027282055 -0.036632158 -0.018277157
000030 c4 c5 57 3c f6 c3 bb bc 08 66 80 bc d4 58 ca bc
       0.01316971 -0.02292059 -0.015673652 -0.02470056
000040 19 1f 54 3c e8 41 8a bc e6 ab ad 3b 52 7e 90 bb
       0.012946867 -0.01687713 0.005300033 -0.00440959
000050 e2 46 cd 3c c6 90 f8 bc bf 27 fe 3c 3a 7f e6 bc
       0.025058214 -0.03034247 0.031024812 -0.028136838
000060 d2 4c 0b 3c ec 1e 20 3d 80 55 f8 39 de d9 e5 bb
       0.008502202 0.03909199 0.0004736595 -0.007014497
000070 36 2c dd bc 8f e3 ff bc cf 42 6b 3c 30 6a 2d 3d
       -0.02699862 -0.031236438 0.01435919 0.042337596
000080 58 10 19 bd 70 1a df 3c f6 0d 52 bc f4 07 db bc
       -0.037369102 0.027234286 -0.012820711 -0.02673719
000090 96 30 15 bd 2e fe 25 bd 34 be 72 3b 02 c3 f9 3c
       -0.03642329 -0.040525608 0.003703964 0.030488495
0000a0 62 6f ad 3c e0 47 27 b9 54 ab 11 bc d6 5f d0 3c
       0.021171276 -0.00015953137 -0.008890945 0.025436323
0000b0 a1 ef 19 bd 31 f3 16 3d bc df 89 bc 0d 57 85 3c
       -0.037582044 0.03685302 -0.016830318 0.01627686
0000c0 58 c8 c7 3c b6 b4 24 3d 8c f2 da bc 14 89 c7 bc
       0.024387524 0.040211402 -0.026726983 -0.024357356
0000d0 3c 1b c4 bc 45 ae e6 bb b0 e6 73 bb 78 be 4b 3c
       -0.023938768 -0.0070398175 -0.0037216358 0.012435548
0000e0 0c a3 c7 3c f3 d1 d6 ba cf 1e 81 bc fc 22 03 bd
       0.024369739 -0.0016389474 -0.015761761 -0.032015786
0000f0 93 86 f4 bc 3c 20 b4 3c 8f f4 03 3d f4 72 d7 bc
       -0.029849326 0.021988027 0.03221565 -0.026299931
000100 cf 85 ae bb 73 21 1a 3d 3d d1 2a 3d 78 8f 9d 3c
       -0.00532601 0.037629556 0.04170345 0.01923345
000110 fe aa 89 3a d8 63 97 bc 28 d7 9f bc 28 90 27 bc
       0.001050323 -0.018480226 -0.019511774 -0.010227241
000120 be dd ce 3c c6 f4 5f 3c 4e e9 c1 bb ea b0 06 bd
       0.02525222 0.013669198 -0.0059177047 -0.032883562
000130 ec a3 f9 3c e7 60 2b bb d1 b4 42 bc 6b 78 22 3d
       0.030473672 -0.0026150288 -0.01188393 0.03966562
000140 84 c8 ba 3c 78 4a 10 bd 7c 9b 97 3b e4 b7 aa bc
       0.022800691 -0.03522727 0.0046266895 -0.020839639
000150 ee 14 42 bc 95 9b 83 bc e0 cd b8 bc d2 d1 a8 3c
       -0.01184581 -0.016065398 -0.022559106 0.020607863
000160 c6 57 33 bd 65 ed a8 3c 04 38 82 3c 62 25 dd 3c
       -0.04378488 0.020621011 0.015895851 0.026995365
000170 35 40 c9 bc b1 49 3e 3d 4e a9 dd bc ea 6e 0e bd
       -0.02456675 0.046456996 -0.02705827 -0.034773745
000180 02 0f c9 bc 63 45 82 3c 58 11 35 bd 6e 91 fe bb
       -0.02454329 0.015902227 -0.044205993 -0.0077688014
000190 0c 6b 34 bd a1 51 e1 bc 2a d2 47 bc 7c 02 89 3a
       -0.0440474 -0.027504744 -0.012196103 0.0010453011
0001a0 b8 af 7e 3c be f7 7f 3c 42 79 43 3d 14 a9 15 3c
       0.015544824 0.015623031 0.047723062 0.00913455
0001b0 28 45 36 bd 6e 70 33 bd aa 43 c3 3c 7c 10 c3 3c
       -0.044499546 -0.043808393 0.023835976 0.023811571
0001c0 e3 d3 32 bd 18 2f 89 39 5c 90 34 bd 32 c0 35 bd
       -0.043659102 0.00026165764 -0.044082984 -0.044372745
0001d0 00 34 32 3d 14 ac d9 3c 08 0f 2a bd 22 21 2b bd
       0.043506622 0.026571311 -0.04151824 -0.041779645
0001e0 f9 c1 34 3d 52 c1 dd 3c da 10 29 bd cc 3e c4 bb
       0.0441303 0.027069721 -0.041275837 -0.0059889313
0001f0 a8 de 8e 3c 8d 7d 96 3c 48 02 9f 3c 8e 68 96 3c
       0.017440155 0.018370414 0.019410267 0.018360402

classifier.weight f4 [3, 128]
000000 25 12 84 bd c0 b9 b1 3c de 5b af bd bc b0 a7 3d
       -0.06448773 0.021695018 -0.08562444 0.08188006
000010 e3 46 93 bd 36 6b 91 3c 6a 85 84 bd ce 9e 4b bd
       -0.07191255 0.017751317 -0.06470759 -0.049711995
000020 9c 9d 95 3d af 66 57 bd 30 16 e5 bc e8 a7 9f bd
       0.07305452 -0.05258816 -0.027964681 -0.077956975
000030 d8 ff a9 3b 8d 99 88 3d ae 3a 04 bc f4 e7 4d 3c
       0.0051879697 0.066699125 -0.008070631 0.012567509
000040 14 23 50 3c e1 b6 bd 3d 22 98 9e 3d c0 fc 37 bb
       0.012703676 0.09263397 0.07743861 -0.0028074235
000050 10 c1 59 3b a9 16 20 3d fc 6b 73 3d 02 1e 90 3d
       0.0033226646 0.03908411 0.059429154 0.070369735
000060 18 9d 48 3c e6 41 b4 3d 7b 9b bb bd db 05 ac 3d
       0.012244485 0.08801632 -0.09160515 0.08399554
000070 8c 62 2d 3d 02 13 5c 3d f6 e7 86 3d a9 15 91 bd
       0.04233031 0.053729065 0.06587212 -0.070842095
000080 cc 46 85 3c f6 69 53 bd 90 6c c0 3d 02 dd 0e bd
       0.01626911 -0.051614724 0.09395707 -0.03487874
000090 bd 3f 57 bd c0 54 f4 3c 80 72 d9 3a c1 c6 18 3d
       -0.05255102 0.029825568 0.001658991 0.03729892
0000a0 24 de c7 bd 89 55 4b bd 24 89 6e 3d 4c af 0f 3c
       -0.09759167 -0.04964212 0.058236256 0.008769821
0000b0 40 43 65 bb 00 b9 d3 bd 62 92 20 3c 50 0b e8 b9
       -0.003498271 -0.1033802 0.009800525 -0.00044258917
0000c0 0e 8f a9 bd 9e 84 0a 3c f0 10 54 bd 78 c2 64 3c
       -0.08279239 0.00845447 -0.051773965 0.013962381
0000d0 c6 40 87 bd b4 5f 33 bb 28 c2 34 3b 40 ce 78 bd
       -0.066041514 -0.0027370276 0.0027581546 -0.06074357
0000e0 c0 6f 6f bc 4f 3d 23 bd 81 cd 56 bd 04 fd c3 bb
       -0.014614046 -0.03985339 -0.052442078 -0.0059810895
0000f0 25 1f 2a bd a9 fb 88 3d 88 a4 a8 bd a0 c0 a8 3d
       -0.041533608 0.06688625 -0.08234507 0.08239865
000100 d8 5a a6 bd 3d 81 86 bd 36 19 ba 3d fb 55 d8 bd
       -0.08122796 -0.06567619 0.0908684 -0.105632745
000110 60 e4 fd ba de 0b 58 bb 4a 80 67 3d af 36 c3 bc
       -0.0019370429 -0.0032966058 0.05651883 -0.023829786
000120 5a 39 6d 3d 81 41 ac 3c 61 4b 86 3d 32 5d 7f bd
       0.057916023 0.021027328 0.06557346 -0.062344737
000130 b4 e9 60 bd 8c 21 7a bd 15 ed bf 3c 99 9d 0b bd
       -0.054910377 -0.06106715 0.02342848 -0.034085844
000140 2e 88 40 3c c8 b6 38 bd d0 5b b1 bb a2 03 83 3d
       0.011751218 -0.04509619 -0.005412556 0.06397177
000150 38 1d 9c bd 59 63 51 bd 60 8d ab 3a b1 52 b0 bc
       -0.076227605 -0.051120136 0.0013088398 -0.021523805
000160 f4 58 a4 bd ce a7 24 3d 3c 9b ab 3d 0a bc 3f 3d
       -0.08024779 0.040199094 0.08379218 0.046810187
000170 c8 db af 3c a5 01 15 3d 9b 8d 81 3c 75 a3 14 3d
       0.021467105 0.03637852 0.015814593 0.036288697
000180 a0 a8 9b 3c 90 10 7e bd ec de fc 3b ec b4 18 3d
       0.019001305 -0.062027514 0.007717004 0.037281916
000190 a3 cb 84 3d 70 69 8b bd 86 d1 9e bc a4 e0 70 3d
       0.06484153 -0.0680722 -0.019387018 0.058807984
0001a0 1a 6e c3 3c a5 3c a8 bd 6f 21 0b 3d 82 78 91 3d
       0.023856211 -0.08214692 0.03396743 0.07103063
0001b0 12 1c de 3d c8 4c c7 bb 1a 05 cc 3b 46 f3 81 3c
       0.10845198 -0.006082151 0.006226194 0.015863072
0001c0 8a 6b 3a 3d 26 f3 be bc 2a c1 73 bd 0c 71 4b bc
       0.045512713 -0.023309302 -0.059510387 -0.012417089
0001d0 2a 03 a1 3c ea ed 84 3d 38 e6 c1 bd ac 48 ce 3c
       0.019654829 0.06490691 -0.09467739 0.025181137
0001e0 bc 8f f1 3c f3 d3 00 bd 7b 0e 51 bd f6 55 23 bd
       0.029487483 -0.03145213 -0.0510392 -0.0398769
0001f0 86 c4 50 3d e4 d3 cb 3c ee 8b 83 bc 18 47 14 3c
       0.05096867 0.02488131 -0.016057935 0.009050153
000200 13 89 09 bd ac c4 2b 3b 3e fc 69 3d 70 39 5e 3a
       -0.03357799 0.0026209755 0.057125323 0.0008477187
000210 80 7c 9a 3a fa 0f 76 3d 6c e2 9f bd ec 70 8b bb
       0.0011786371 0.06007383 -0.078068584 -0.0042554047
000220 ba 29 63 bd 5c 72 5b 3d 00 b4 cc b9 30 7b 1e 3d
       -0.055459715 0.05357586 -0.00039044023 0.0386917
000230 2d e4 95 3d 7c 9c d2 bb d6 d0 ad bc ce da bf 3d
       0.07318912 -0.006427346 -0.021217745 0.093679056
000240 6c a0 04 bd d1 fa 99 bc 48 f6 d9 bc e4 f0 9e 3b
       -0.032379553 -0.018796356 -0.026606694 0.0048504937
000250 cc 1c 25 bd 55 e6 33 bd b2 be 60 bd 70 62 a7 3d
       -0.040310666 -0.043920834 -0.05486936 0.08173072
000260 93 62 27 bd e4 64 89 bd aa 0f 02 bd 4e 5e a4 3b
       -0.040865492 -0.067086965 -0.03175322 0.005016125
000270 a5 c1 d2 bc e2 14 28 bd 5c c6 ae bb f7 78 5a 3c
       -0.025727103 -0.04103554 -0.005333705 0.013334504
000280 7b c3 00 bd 7e cd a4 ba e6 a0 69 3d 82 d4 96 3d
       -0.031436425 -0.0012573448 0.05703821 0.073647514
000290 09 ce 8e bd 20 94 3b bd e8 36 ed bc 94 ec c7 3c
       -0.06972892 -0.04579556 -0.028956845 0.024404801
0002a0 a8 75 d5 bb e0 d0 9c bb 80 6e 0d bd bb 16 8b bd
       -0.00651427 -0.004785642 -0.03452921 -0.06791445
0002b0 e2 a5 9b bd f8 0e ba bb c8 1e bb bb b3 fc 4c bd
       -0.07599999 -0.005678054 -0.0057104565 -0.05004568
0002c0 68 ca b2 3d 76 8f cb bd c0 fc ef 3c 19 f6 ce 3c
       0.08730012 -0.099394724 0.029295325 0.025263833
0002d0 60 7e a6 3d aa 27 55 bd 86 7f 98 bd 6a e2 ce 3d
       0.08129573 -0.05203978 -0.07446198 0.10101779
0002e0 e7 97 51 3d 20 80 8e 3d 1d 8f 55 3d 2a 23 86 3d
       0.051170256 0.06958032 0.052138437 0.06549676
0002f0 e6 6e b0 3c e2 dc 28 bd 61 a6 9a bc ea e5 8c bc
       0.021537255 -0.041226275 -0.018878164 -0.017199475
000300 8b be 49 3c c0 03 3e 3d 87 b7 23 bd 50 dc 9d bc
       0.012313495 0.046390295 -0.039969947 -0.019270092
000310 ae f7 0f 3c c3 6b 0a bd 82 59 99 3c 11 20 07 3d
       0.008787079 -0.033794176 0.018719438 0.032989565
000320 d1 69 8e bd 5c 1f 9d bd 3b 3a 06 bd 7c d9 ae 3c
       -0.06953777 -0.07671997 -0.032770377 0.021343939
000330 62 0c a8 3d df 5a bf 3d 18 ff 6e 3c e4 de a8 3d
       0.08205487 0.09343504 0.014587186 0.08245638
000340 48 8e e4 bd 7e 20 a2 3c fe a8 54 3d ac 88 3e bd
       -0.111599505 0.019790884 0.051918976 -0.04651706
000350 d0 a0 b6 3c 46 03 4a 3d f2 6d 7f bd 3d 67 05 bd
       0.022293478 0.049319528 -0.06236071 -0.03256916
000360 5d ba ce 3c df 31 b8 3d a0 90 62 ba f9 03 70 3d
       0.02523535 0.08993887 -0.00086427666 0.05859754
000370 98 07 a3 bc c5 a2 19 3c 70 e1 b3 bb da e7 c3 3c
       -0.019901082 0.009377186 -0.0054895207 0.023914266
000380 6e 56 78 bc 43 40 82 3d 00 85 bf 3a f4 89 d1 bc
       -0.015157325 0.06359913 0.0014611781 -0.025578476
000390 2e 2c f7 bc 1a 70 8e 3d 6b 9c 9c bd 80 3a cd 39
       -0.030172434 0.069549754 -0.07647022 0.00039144233
0003a0 c2 ec 8e bd 19 b0 21 3d 06 55 88 bc e6 69 8b 3c
       -0.06978752 0.03947458 -0.016642105 0.01701827
0003b0 44 87 88 bc 76 e8 c2 bd 00 6e 71 3d c1 18 0d bd
       -0.016666062 -0.09516995 0.058942795 -0.034447435
0003c0 6c 35 0b bd 0c bb ad 3c 06 bc 3d bc 0e 59 97 3d
       -0.033986494 0.021207355 -0.011580473 0.07390033
0003d0 65 fb cd 3c 11 8a f3 bc 56 18 9a bb 92 2f a6 bd
       0.025144288 -0.029728921 -0.004702608 -0.08114542
0003e0 11 35 32 3d 7c 5e 42 3d 23 90 af 3d 78 f1 7e 3c
       0.04350764 0.04745339 0.08572414 0.0155605
0003f0 9e 74 b6 bd 13 53 2c bc ac b6 61 3c 90 95 89 bb
       -0.08908962 -0.010517853 0.0137764625 -0.0041987374

classifier.bias f4 [3]
000000 c6 ab 7e 3d c3 c4 08 bd b2 5f 10 bd
       0.062175535 -0.03339077 -0.035247512
