lstm_model_weights_fixed/epoch_3/lstm_bias_hh_l0.npy (npy, 8320 bytes, 1 tensors)

array f4 [2048]
000000 82 76 d0 3c 31 08 7b 3d a1 c6 1b 3c f4 22 d8 3b
       0.025447134 0.06128711 0.009507806 0.0065959636
000010 b0 1f 06 3d 49 bd 6b 3d bd 8f b7 3c 4d 4b be bc
       0.032745063 0.057553563 0.022407407 -0.023229266
000020 e3 3b 6d 3d 12 87 1f bc 51 de 29 bc 4f dc 3c 3d
       0.05791844 -0.009736793 -0.010367946 0.04610854
000030 45 9d 46 3d 12 65 60 3d 40 16 73 3c 5b 03 cc 3c
       0.048489828 0.05478389 0.014836848 0.024903944
000040 68 68 2a 3d 95 ce 84 3c e0 89 3d 3d d6 67 95 b9
       0.041603476 0.016211787 0.046274066 -0.00028496858
000050 5c 7f b3 ba 5a f2 a1 bc 4c e2 f7 3b 9e 3b 24 3d
       -0.0013694572 -0.019768883 0.0075648185 0.040095918
000060 b5 c2 8e 3d 36 e8 d5 3c c2 9e a3 3a f3 af 06 3d
       0.06970731 0.026111703 0.0012483227 0.032882642
000070 7b 0d b6 3b b9 7a 8b 3d a1 7d 5b bc 1c d3 0d 3d
       0.005555806 0.06810517 -0.0133966515 0.034625158
000080 a9 80 0d 3d c3 ee 33 3d b8 71 7e 3c ab 8a 4d 3d
       0.034546528 0.043928873 0.015530042 0.050181072
000090 59 e7 15 3c 80 b1 ba 3c 6b 83 ab 3c bd 61 83 bb
       0.009149396 0.022789717 0.020936688 -0.004009454
0000a0 1f 58 25 bc ea c0 61 3d 56 76 8b 3d 50 ed 18 3c
       -0.0100918105 0.055115618 0.0680968 0.009333923
0000b0 95 be 23 3d 72 34 c3 3c 55 b8 06 3d cf 08 31 bb
       0.039976675 0.023828719 0.032890636 -0.0027013307
0000c0 96 4e 11 bc 21 34 39 3c 40 2d 92 3c 5a 38 de 3c
       -0.008868834 0.011303932 0.017843843 0.02712648
0000d0 0f 6b 9a bb 50 30 96 bc c3 d8 ff 3c b5 14 5b 3d
       -0.0047124694 -0.018333584 0.03123129 0.053486545
0000e0 e4 ef 49 3d 21 f1 0e bc 54 45 33 3b a8 7e 13 3d
       0.049301043 -0.008724482 0.0027354555 0.03600946
0000f0 e3 0f 68 3c 16 c1 8b 3d 08 67 69 3d c4 ea ee 3a
       0.014163944 0.068239376 0.056983024 0.0018227925
000100 a7 1d 76 3d 72 7f 59 3d 2d ef 70 bc 9d db dd 3c
       0.060086872 0.053100057 -0.014705461 0.027082259
000110 e2 d1 4b 3d d2 30 cb 3b 6c fe 79 3d d3 3b cd 3c
       0.049760707 0.006200888 0.06103365 0.02505294
000120 01 88 68 3d a9 1e 11 3d 51 4b 80 3d e7 fb 0d 3c
       0.05677033 0.03542963 0.062643655 0.008666015
000130 91 46 48 3d ee ad 24 3d ee 56 15 3d 25 59 15 3d
       0.048895422 0.040204935 0.036459856 0.036461968
000140 f3 24 8b bc 98 f6 30 3d 47 b7 b4 3c 18 6e 82 3d
       -0.016985392 0.04320392 0.02206005 0.06368655
000150 a3 0f 6b bc 01 d8 a5 bc d1 8e 07 3c ad 6e f2 3c
       -0.01434699 -0.0202446 0.008273796 0.02959379
000160 99 ee 4c 3d e9 e4 62 bc b2 05 5a 3d c1 6e 6d 3d
       0.050032232 -0.013848522 0.053228088 0.05796695
000170 12 0c 95 3c 9f ba a1 bb 91 bb 38 3d 26 81 79 bb
       0.018194232 -0.004935577 0.045100752 -0.0038071363
000180 cc d1 44 3d 02 33 21 3d e6 70 34 bc 1e 5d 5c 3d
       0.04805164 0.039355285 -0.011013245 0.05379974
000190 51 2e d3 3c 70 1c 44 3d 1f f5 29 3d 44 01 78 3d
       0.025778921 0.047878683 0.04149353 0.060548082
0001a0 d8 bd 02 3c 9c ff 35 3c 17 a8 36 bb 2f 95 69 3c
       0.007979833 0.011108305 -0.0027871185 0.01425676
0001b0 6c 9c 74 3d 6f 0a 0b 3d 1f 7d 70 3d 04 94 f5 3c
       0.059719488 0.033945497 0.058713075 0.029977806
0001c0 3c fb 8c 3d 31 3e 80 3d c1 34 4f 3d 9a be 1a 3d
       0.06883857 0.06261862 0.05058742 0.037779428
0001d0 99 3f 1f 3d a3 0f 7b 3d 8f c4 13 bc ef f9 16 3d
       0.03887901 0.06129421 -0.009019031 0.03685945
0001e0 31 ef 87 3d b0 fd d7 3c df d3 64 bc 09 ca 49 3d
       0.06637419 0.026366085 -0.01396653 0.04926494
0001f0 1c 4b 08 3c 75 b2 a7 3c c0 38 96 3c 9d 13 11 3d
       0.008318689 0.020470837 0.018337607 0.035419095
000200 2e 36 17 3d 4e fb f7 3c 5b 6e ad 3c d8 b0 64 3a
       0.036916904 0.030271199 0.021170786 0.00087238615
000210 5d cc 8d 3b bf 0e f8 3c dc 36 25 bc 5a f8 98 bc
       0.0043273405 0.030280469 -0.01008388 -0.01867311
000220 7e 7c 85 3b c4 fc 0e 3c 3a 99 28 3d 77 49 14 3d
       0.0040736785 0.008727256 0.041161753 0.036202874
000230 e6 b3 9e 3c 8c a4 b0 3c 28 e0 85 3c a8 48 77 bc
       0.019372892 0.021562837 0.016342238 -0.015093006
000240 95 26 42 3d e8 f7 7d 3d 22 03 1c 3d 4f c7 48 3d
       0.047400076 0.062004 0.038088925 0.0490182
000250 8e d2 90 3d b5 33 8c 3b c2 14 53 3d 52 63 50 3c
       0.0707141 0.004278625 0.051533468 0.012718992
000260 40 d4 76 3d de ae b7 3b 42 56 8a bc 8f a6 4b 3d
       0.06026101 0.0056055626 -0.016886834 0.04971939
000270 2e b1 40 bb 4c db a4 3c 18 76 c6 3c e4 54 10 3d
       -0.0029402482 0.0201241 0.024226233 0.035237208
000280 de f1 03 3d 88 46 0f bc f6 84 1a bc 5f 9b 75 3c
       0.032213084 -0.008744843 -0.009431114 0.014990657
000290 1b 9e 20 bc 51 bc ce 3b 57 02 80 3d 40 a2 a5 ba
       -0.00980332 0.00630907 0.06250446 -0.0012636855
0002a0 a0 6a 3d 3d b1 d2 02 3d f8 df 3e 3d aa eb e4 3c
       0.046244264 0.031939212 0.046600312 0.027944405
0002b0 f0 1e 32 bb f3 64 cb bc cc 54 73 3d a6 2f 6b 3d
       -0.0027179085 -0.02482841 0.05940704 0.057418488
0002c0 30 34 81 bc 9b c2 1c 3d f5 a8 07 bc f2 49 7c 3d
       -0.015771955 0.038271528 -0.008280029 0.061593957
0002d0 16 d8 5d 3c 8b 54 97 bc d8 21 3b 3d 6a 35 1e 3d
       0.013540288 -0.01847293 0.045686573 0.03862516
0002e0 fe 14 39 3d 0e dd b1 ba ef c3 11 3d 7f 1d 2f 3d
       0.045186035 -0.0013569908 0.035587247 0.04275274
0002f0 26 90 1b 3d ae 96 1e bc 34 ed d6 3c e0 d6 72 3d
       0.037979268 -0.0096794795 0.026236154 0.059286952
000300 df 96 6d bc 0c c1 39 3c 9d c4 8a 3d 5a 86 3b 3d
       -0.0145013025 0.01133753 0.06775782 0.045782425
000310 95 fc 8c bc 99 b2 d5 3b 46 71 57 3c 09 1d 17 3d
       -0.017210284 0.0065215346 0.013149565 0.036892924
000320 a3 56 0a bc 71 75 93 bc 48 7e 4e 3c b8 f2 c9 bb
       -0.008443507 -0.018000336 0.01260335 -0.0061629675
000330 73 5a 31 3d 85 6c 8b bc 95 6c b3 3a 86 7d dd 3c
       0.04329915 -0.01701952 0.0013688976 0.027037393
000340 15 15 39 bc 4c ef 2e 3c 7a 8d 36 3c eb 80 a6 3c
       -0.01129653 0.01067717 0.011142129 0.020325145
000350 73 7c 27 bb d1 b0 66 3d ff d3 b4 3c 5e 32 48 3c
       -0.0025556355 0.05632097 0.022073744 0.01221904
000360 37 64 76 3d 14 2b df 3b 44 50 e4 3c 74 63 90 3d
       0.060154166 0.0068105552 0.027870305 0.07050219
000370 f4 02 7c 3d e5 75 15 3d e8 eb 99 3c d0 c6 3f 3d
       0.061526254 0.036489386 0.018789247 0.04682046
000380 b1 38 31 3d 16 8e 8c 3d 8c ca 27 3d e3 2b 13 3d
       0.043266956 0.06863038 0.040964648 0.035930526
000390 db 21 c4 bb 85 cb 98 3c 11 51 82 3d 51 51 76 bc
       -0.005985481 0.018651733 0.063631184 -0.015034036
0003a0 ca 66 04 bc 3a ff 2f 3d ab 05 7d bc e1 7e 1f 3d
       -0.008081147 0.042968012 -0.015443246 0.03893936
0003b0 49 36 02 3b 3b 27 05 bc 17 88 35 bc ed 23 d5 3c
       0.0019868782 -0.008127029 -0.01107981 0.026018107
0003c0 d6 d8 9f 3c 1d 15 3f bb 38 7a e5 3c a1 0f 8c bc
       0.019512575 -0.0029156872 0.02801238 -0.017097296
0003d0 40 c6 59 3d de f9 36 3c 2b dc 61 3d 0b c9 24 3d
       0.05316758 0.011167971 0.05514161 0.040230792
0003e0 c5 a7 5e 3d bd 07 f6 3c 71 35 4f 3d c9 77 88 bb
       0.054359216 0.030032987 0.050588075 -0.00416467
0003f0 9a c7 5b 3d 1f 40 3e 3d ab d0 d7 3c ff a4 03 3d
       0.05365715 0.04644787 0.026344618 0.032139774
