lstm_model_weights_fixed/epoch_3/projector_weight.npy (npy, 262272 bytes, 1 tensors)

array f4 [128, 512]
-0.045471326 -0.007087864 -0.024858449 -0.014261167 0.0016318565 -0.037371263 -0.0025829582 0.03759773
0.010316045 -0.029437898 0.058844402 0.023111286 0.040273353 -0.01510123 -0.049187124 -0.027759133
-0.060755186 0.024108399 -0.045366235 -0.008480401 -0.02949707 0.03528156 0.05276296 -0.019726532
0.021108212 0.062304564 0.026068944 -0.03372126 -0.017180244 -0.014342375 0.017335044 0.010979829
0.062417503 0.052175958 -0.015799226 -0.014262722 0.026664492 0.030377662 0.041387413 -0.04107695
-7.296392e-05 0.02295294 0.009962096 -0.029907456 -0.038892716 -0.060274225 0.015317064 -0.029150093
-0.003479335 0.008869654 -0.04474471 0.014892519 0.008220615 0.030630687 0.0018500608 -0.024497975
0.03734363 0.00046640704 0.004052471 -0.023226568 -0.015451456 0.0083806515 0.017675087 0.04761517
0.004028782 -0.04955118 -0.036807567 0.055666536 0.04550683 -0.016006727 0.049667224 0.02337608
-0.015088612 0.012440684 -0.0040807365 -0.02571005 -0.004160526 -0.019835642 -0.06290325 0.044396307
-0.0016635004 -0.010199435 0.026147384 -0.038916733 -0.005901864 0.013938232 -0.035200264 0.05399191
0.059227973 0.016890194 0.012087173 0.013772952 0.03350388 -0.029978843 -0.013263332 -0.0015745768
0.013324436 0.010511049 -0.025231894 0.05037315 -0.017089998 -0.019117504 -0.023103323 0.020408597
0.010623915 0.026006185 -0.059666015 -0.056293648 -0.041002914 -0.036729407 -0.032704048 -0.020643484
-0.05085202 0.011291186 -0.042594384 -0.022589978 -0.04088028 -0.010898277 0.06077348 0.016172566
-0.04130064 0.014315961 -0.013347641 0.039828613 0.0060422393 -0.0093939 0.009626718 0.02017339
-0.01212697 -0.004650202 -0.0272554 -0.010984695 -0.020187134 0.023173813 -0.013443539 -0.04310385
-0.009713943 0.003926306 -0.024136398 -0.0045448313 -0.0070202304 0.018093416 0.043396477 0.0007184507
-0.012752643 -0.010952868 -0.023198245 -0.022861864 0.008932862 -0.015105263 0.003567321 -0.03136433
0.015372444 -0.038375147 0.022695318 0.046470996 -0.0407246 0.020540679 -0.05461863 -0.023540113
-0.04172225 -0.025364922 0.06286185 -0.015318279 -0.030731374 -0.022354484 0.008313685 0.021099718
0.015728567 -0.036182903 0.030905418 0.045205005 0.053842865 -0.026794147 -0.03646331 -0.054601274
0.01601606 -0.0047685313 -0.059792448 0.03170137 -0.022455709 0.01568427 -0.027314706 0.030351326
0.024760995 0.051117253 0.027093831 -0.020354718 0.0029243776 0.025969213 -0.014788437 3.975723e-05
0.019739026 -0.027903542 -0.062463667 0.043599725 0.028634677 0.050814033 -0.004539532 0.005400228
0.00688631 0.024474775 -0.017934458 -0.057830643 -0.02041017 -0.010983994 0.008711718 -0.011737863
-0.0023182384 -0.010398802 0.046994615 0.056636922 -0.007185517 0.0277584 0.04267794 0.025187027
-0.018535914 -0.03490981 -0.036494173 -0.030808989 -0.017224606 -0.006926961 -0.0035912548 -0.010784974
-0.010573541 -0.0060234764 -0.010443951 -0.004611522 -0.04649001 -0.019992484 0.011872677 -0.054875445
-0.01738822 0.057299975 0.01821524 0.020068116 -0.016122827 -0.03066469 -0.005735988 -0.05330341
-0.05190243 -0.037442703 0.03561743 -0.009538762 0.040259447 -0.050098456 -0.0013848768 0.012203115
0.008537219 -0.013909354 -0.009545341 -0.019247504 -0.060101118 -0.02511399 -0.018451137 -0.015081093
00000000: 2440 3abd 5041 e8bb f2a3 cbbc aba7 69bc
00000010: 05e4 d53a 9c12 19bd d946 29bb 1400 1a3d
00000020: a104 293c bf27 f1bc d406 713d e153 bd3c
00000030: acf5 243d 266b 77bc 7078 49bd 1f67 e3bc
00000040: 6eda 78bd fa7e c53c f2d1 39bd 61f1 0abc
00000050: d7a3 f1bc 6683 103d f91d 583d 8999 a1bc
00000060: 21eb ac3c 1233 7f3d 8a8e d53c 4e1f 0abd
00000070: 95bd 8cbc 48fc 6abc 3902 8e3c bee4 333c
00000080: 7fa9 7f3d 75b6 553d 616d 81bc 31ae 69bc
00000090: 7e6f da3c 93da f83c d985 293d 4e40 28bd
000000a0: 3504 99b8 ce07 bc3c 0f38 233c 7b00 f5bc
000000b0: f84d 1fbd 1be2 76bd 6cf4 7a3c 2dcc eebc
000000c0: 8e05 64bb 0652 113c 3b46 37bd c1ff 733c
000000d0: c2af 063c 35ed fa3c bd7d f23a faaf c8bc
000000e0: a2f5 183d 1888 f439 97ca 843b a545 bebc
000000f0: 1b28 7dbc 004f 093c 58cb 903c 2008 433d
00000100: df03 843b 2ef6 4abd 88c3 16bd 9802 643d
00000110: 5f65 3a3d 8a20 83bc dc6f 4b3d 317f bf3c
00000120: 3a36 77bc 03d4 4b3c b3b7 85bb e29d d2bc
00000130: 0655 88bb 5b7e a2bc 6bd3 80bd e7d8 353d
00000140: d009 daba 881b 27bc 0a33 d63c 2767 1fbd
00000150: 6c64 c1bb 2f5d 643c 272e 10bd 9f26 5d3d
00000160: 0899 723d 4e5d 8a3c 4709 463c f3a7 613c
00000170: 5d3b 093d 3196 f5bc 724e 59bc 0862 ceba
00000180: bc4e 5a3c 8936 2c3c 1eb3 cebc 1354 4e3d
00000190: 5300 8cbc 509c 9cbc 2e43 bdbc ee2f a73c
000001a0: ee0f 2e3c ec0a d53c 5a64 74bd 2b94 66bd
000001b0: acf2 27bd 9371 16bd aef4 05bd 861c a9bc
000001c0: 354a 50bd abfe 383c 7377 2ebd 9e0e b9bc
000001d0: 1572 27bd b08e 32bc 9ded 783d 547c 843c
000001e0: dc2a 29bd 7e8d 6a3c 10b0 5abc 5423 233d
000001f0: fafd c53b dfe8 19bc 62b9 1d3c aa42 a53c
00000200: 33b0 46bc b960 98bb b746 dfbc 26f9 33bc
00000210: 7d5f a5bc 02d7 bd3c 4a42 5cbc aa8d 30bd
00000220: 3b27 1fbc 3ea8 803b b2b9 c5bc cfec 94bb
00000230: f609 e6bb a538 943c 81c0 313d 6956 3c3a
00000240: 76f0 50bc a873 33bc 3f0a bebc ce48 bbbc
00000250: 245b 123c 117c 77bc b7c9 693b e277 00bd
00000260: b4dc 7b3c 422f 1dbd 88eb b93c 5f58 3e3d
00000270: d7ce 26bd ed44 a83c c9b7 5fbd 32d7 c0bc
00000280: f3e4 2abd 19ca cfbc b7bd 803d 85f9 7abc
00000290: 5dc0 fbbc c020 b7bc 1f36 083c 51d9 ac3c
000002a0: 32d9 803c 8634 14bd 5c2d fd3c e228 393d
000002b0: 568a 5c3d 667f dbbc 8d5a 15bd 96a5 5fbd
000002c0: 1d34 833c 5741 9cbb ede8 74bd 4cd9 013d
000002d0: 09f5 b7bc 4c7c 803c 17c3 dfbc 58a3 f83c
000002e0: 92d7 ca3c 5360 513d e2f3 dd3c f0be a6bc
000002f0: eaa6 3f3b 63bd d43c 334b 72bc 00c1 2638
00000300: bdb3 a13c f895 e4bc e7d9 7fbd a095 323d
00000310: 4593 ea3c 6022 503d 5bc0 94bb 65f4 b03b
00000320: 8ea6 e13b 537f c83c 49eb 92bc d3df 6cbd
00000330: 3b33 a7bc 36f6 33bc 98bb 0e3c 2a50 40bc
00000340: 96ed 17bb bd5f 2abc 6d7d 403d 1efc 673d
00000350: 7c74 ebbb 9665 e33c 10cf 2e3d 0655 ce3c
00000360: a1d8 97bc 97fd 0ebd ea7a 15bd 2263 fcbc
00000370: 9e1a 8dbc 8ffb e2bb 425b 6bbb 76b3 30bc
00000380: a53c 2dbc 9560 c5bb 1b1d 2bbc 401c 97bb
00000390: 4f6c 3ebd 47c7 a3bc 9e85 423c 13c5 60bd
000003a0: be71 8ebc 61b3 6a3d 2138 953c e465 a43c
000003b0: 0514 84bc 8434 fbbc f4f4 bbbb ad54 5abd
000003c0: a497 54bd 855d 19bd 95e3 113d 7848 1cbc
000003d0: 17e7 243d 0a34 4dbd c184 b5ba 93ef 473c
000003e0: b1df 0b3c 0fe4 63bc 1064 1cbc f1ac 9dbc
000003f0: 972c 76bd dbbb cdbc d726 97bc b016 77bc
