lstm_model_weights_fixed/epoch_4/lstm_bias_ih_l0.npy (npy, 8320 bytes, 1 tensors)

array f4 [2048]
000000 35 12 3d 3c b0 35 e3 3c 8b 9c 17 3d 5f fd 92 3c
       0.011539985 0.027735561 0.037014525 0.017943082
000010 d8 f8 24 3c ed 8a 26 3c 0c 5f c5 b9 8c fe 43 bc
       0.010069095 0.010164958 -0.00037645584 -0.011962544
000020 1b 54 4b 3d 1b c8 66 3c 92 c7 bd bb 0d ed 70 3d
       0.049640756 0.014085795 -0.005791613 0.05881982
000030 da 25 98 3d 54 36 8a 3d 7f 80 76 3d 0c 2a 15 3d
       0.074290946 0.067486435 0.060181137 0.036417052
000040 44 e7 3a 3d 25 eb 86 3a 8a c0 0e 3d 48 d1 8a 3c
       0.04563071 0.0010293467 0.03485159 0.016945496
000050 71 6b 6b 3d a3 5b 46 3d d0 34 49 3d af 16 b4 3c
       0.05747551 0.048427235 0.04912263 0.021983473
000060 9a 36 6e 3d 29 2d 84 3d 04 ec a2 3c e5 74 c9 bb
       0.05815754 0.06453926 0.019887932 -0.006147968
000070 5d 76 b2 3c a6 b1 5e 3d 62 87 44 3d 85 d1 1d bc
       0.021784956 0.054368638 0.047980674 -0.009632473
000080 66 ec cd 3a 83 b6 92 bb 6e cd 9e 3b a3 d8 21 3c
       0.0015710711 -0.0044773235 0.0048462665 0.00987831
000090 72 5f 85 3d e9 a8 0d 3d c4 5e 0e 3d 2c c4 a0 3b
       0.065123454 0.034584913 0.034758344 0.004906198
0000a0 36 22 97 3d f4 95 88 3c 49 ce 90 3c 96 22 37 3d
       0.07379572 0.016673066 0.01767649 0.044710718
0000b0 62 c2 23 3c e8 17 71 bb bf 74 5f 3b 68 0a af bb
       0.009995075 -0.003678793 0.0034096686 -0.0053418167
0000c0 75 c7 e9 ba 9c 7a fe 3c 76 98 54 3b 7b 7d c0 39
       -0.0017835932 0.031064324 0.0032439507 0.00036714584
0000d0 91 8f b0 3c dc 11 15 3d 89 c8 ea bb 08 1f 5a 3d
       0.021552833 0.036393985 -0.007165019 0.05325225
0000e0 6f 45 d9 3a 83 b2 eb ba 12 22 32 3d 1b 29 61 3d
       0.0016576479 -0.0017982278 0.043489523 0.05497084
0000f0 d2 f7 fa 3b 28 e6 04 bc 8a 51 9c 3d eb 7a 12 3d
       0.007658937 -0.008111514 0.0763274 0.035761755
000100 3d b8 54 3d 59 6b 88 3c 3e 72 4f 3d 13 bb 46 3c
       0.051933516 0.01665275 0.05064606 0.012129563
000110 16 74 60 3d 58 27 2d 3d ed 78 03 bc 95 9f fa 3b
       0.05479821 0.04227385 -0.008024436 0.007648418
000120 bb 1d 84 3d cf 51 29 3b c3 6a 53 3d 2d e0 15 3d
       0.06450983 0.0025836115 0.051615488 0.036590744
000130 03 ad d6 3b 70 34 19 3d 26 56 b3 3c 1f e0 9a 3d
       0.0065513863 0.037403524 0.021891665 0.07562279
000140 28 f8 06 3d 28 7a b6 3c 2a 1f 51 3d 45 53 83 3b
       0.032951504 0.022275046 0.05105511 0.0040077292
000150 03 59 1a 3d 5e fb 11 3d 1b 60 88 3c 9b 48 d3 3c
       0.037682544 0.035640113 0.01664739 0.025791457
000160 63 f9 20 3d a6 b5 c2 3c 10 51 e4 37 4d cd d7 bb
       0.039300334 0.023768257 2.7217466e-05 -0.006585753
000170 1f 99 29 3d d1 09 92 3c 16 4c 47 3d e8 0e 2f 3d
       0.041405793 0.017826946 0.048656546 0.042738825
000180 4c eb 38 3d 64 1d 55 3d ba 1e 2f 3c fc de 66 3c
       0.04514627 0.052029982 0.010688478 0.01409125
000190 a2 ec 70 3d c7 2f 8c 3d de 7d 1c 3d af 9a 28 3d
       0.05881942 0.0684505 0.038205974 0.041163143
0001a0 56 6d f7 3c 81 62 50 bc 19 b1 3b bc 73 cd 57 3d
       0.030203503 -0.012718798 -0.011455798 0.052686166
0001b0 fd 5d a0 3c c5 27 b8 3c 69 10 62 3d 29 1d 5f bc
       0.019576067 0.022479901 0.05519143 -0.013617792
0001c0 61 35 b2 3c 67 c2 92 bb 37 77 a6 bb 90 02 26 3c
       0.021753969 -0.004478741 -0.0050801295 0.010132447
0001d0 c3 e5 44 bc a9 b8 97 3c d6 6e 89 3a b4 b8 cf 3c
       -0.01201767 0.01852067 0.0010485302 0.025356628
0001e0 26 9a 62 3c b8 20 86 3d 64 42 04 3d ec e9 fc ba
       0.013830697 0.06549209 0.032289878 -0.0019295788
0001f0 da 0a 6e 3d 09 e8 1e 3d 57 df b1 3c 83 da 45 3c
       0.058115818 0.038795505 0.021712942 0.012076023
000200 2d f3 89 3d a4 cc 57 3d de dc 4d 3d 55 5d 24 3d
       0.06735835 0.052685395 0.050259463 0.04012807
000210 6f c9 ce 3c 9c ff 84 bb 07 01 ca 3c e5 d5 ba bb
       0.025242535 -0.0040587913 0.024658693 -0.0057017677
000220 c0 ee ad 3c 52 28 32 bc fe 7e e6 3c 79 ce 92 3c
       0.021232009 -0.010873871 0.028136726 0.01792072
000230 df db 99 3b 13 2b 33 3d 09 df 03 bc 7c c4 19 3b
       0.0046954 0.04374225 -0.008048781 0.002346306
000240 4c 44 72 bc f4 be 15 3d 2d ec 86 3d 53 f9 c0 3c
       -0.014786791 0.03655906 0.06588016 0.023556387
000250 fd c0 6b 3d ce 64 90 3d 00 19 00 bc 38 5e 95 3d
       0.057557095 0.07050477 -0.00781846 0.072933614
000260 4c 21 82 3d 57 02 0e 3d a5 ea 99 bb 8c 17 37 3d
       0.06354007 0.0346702 -0.0046971613 0.04470019
000270 8a ff fd 3c ff 5b 49 3c f9 a5 f3 ba 87 99 09 3d
       0.03100564 0.01229 -0.0018588892 0.03359368
000280 df 79 9e 3c 04 09 4e 3d b6 e7 3f 3d e2 31 ab 3c
       0.019345222 0.050301567 0.046851836 0.02089781
000290 3e 52 9e 3c 2a 92 8c 3d 28 6d 75 3d ab 33 06 3c
       0.019326326 0.06863816 0.059918553 0.00819103
0002a0 dd 70 2b 3c 7c ac b4 3c d4 d0 08 3a 82 da 2c 3d
       0.01046392 0.022054903 0.0005219106 0.042200573
0002b0 94 ee 3f 3d 83 f1 27 3d 60 54 c1 3c 0d 22 23 3d
       0.046858385 0.041001808 0.023599803 0.039827395
0002c0 9c 0b 2d 3d a4 6e 20 3d 67 4c 11 3d bb 72 bf bb
       0.0422474 0.039168015 0.035473254 -0.0058425344
0002d0 57 71 d2 3c 38 b7 df 3a 97 03 68 3d c4 99 3e 3d
       0.02568881 0.0017068153 0.05664405 0.04653336
0002e0 a3 50 0d 3d 5d aa ee 3c 7f d1 90 3d 01 22 89 3b
       0.03450073 0.02913397 0.07071208 0.004184962
0002f0 4a b6 51 3c e5 84 4c 3d 75 29 d9 3b e0 c5 9a 3d
       0.012799809 0.049931426 0.0066272565 0.07557273
000300 bf 3c a4 3b cf 1e 1c 3d 5f 20 a3 3d ee 43 f8 bb
       0.0050121243 0.03811532 0.07965159 -0.007576457
000310 80 4d 6b 3d 79 85 4c 3d 46 50 65 3d da a8 87 3d
       0.057446957 0.049931977 0.055984758 0.06624003
000320 58 d0 2e 3d ba 90 44 b9 f7 dd 4b 3d d0 2f 6e bc
       0.04267916 -0.00018745931 0.04977223 -0.014537767
000330 60 5b 2f 3d ba d6 5d 3c 69 ec 23 3d 54 04 b3 3c
       0.04281175 0.013539964 0.04002038 0.02185265
000340 d5 c7 8a 3d f4 aa ad 3c 62 e2 b2 3b 44 34 1e 3d
       0.06776396 0.02119968 0.005459116 0.038624063
000350 81 e5 1b 3c e1 69 6e 3c 3b ef 93 3d 19 a4 8e 3c
       0.009515167 0.014551611 0.07223364 0.017412232
000360 f8 c7 9f bb 9e 9b f6 3c 7e 44 f3 3c bf 0b 6c 3d
       -0.004876133 0.030103501 0.029695746 0.05762839
000370 41 ba 2c 3d 19 4e 22 3d cf 04 95 3c 27 4e 30 bc
       0.042169813 0.03962526 0.01819077 -0.0107608205
000380 06 f1 18 3d 00 b0 fb bb f7 c4 74 3d 5c b3 1c 3c
       0.037339233 -0.007680893 0.059758153 0.009564247
000390 fb 2d 06 3d 7e 7c 79 3d 19 86 1e bc 15 26 2c 3d
       0.032758694 0.06090974 -0.009675526 0.042028505
0003a0 50 cd 37 3d a0 e1 f6 3c 0f ae d6 3c d8 f1 6b 3b
       0.044873536 0.030136883 0.026206044 0.0036002304
0003b0 d1 7a 6c 3d 5a 02 1a 3c aa 63 99 3d 6a 89 31 39
       0.057734314 0.009399975 0.074897125 0.00016931226
0003c0 ab 07 8b 3c 31 55 dc bb e4 ec 9c 3c 36 47 60 3d
       0.01697143 -0.006724023 0.019155927 0.054755412
0003d0 13 0a 5c 3d 06 f0 83 3c 51 1e 82 3d 58 45 f6 3c
       0.053720545 0.016105663 0.06353439 0.030062363
0003e0 a8 d0 85 3d 64 4b 97 3d b4 fe 93 3d 4d 51 6e b9
       0.06533939 0.073874265 0.07226315 -0.00022727736
0003f0 48 ac d9 3c b8 af 28 3c b2 17 dc 3c 81 cc 27 3d
       0.026571408 0.010295801 0.026866768 0.040966514
