image_model_weights/epoch_2/encoder_4_1_conv2_weight.npy (npy, 147584 bytes, 1 tensors)

array f4 [64, 64, 3, 3]
-0.020946082 -0.0042789965 0.005086729 -0.008143096 0.042004913 0.02281353 -0.009555325 0.055776384
0.029098049 0.059335165 0.04265185 0.043254178 0.022585537 -0.01310664 0.0061611226 0.04549596
0.030040637 0.035926003 -0.016563457 -0.040335946 -0.04776511 -0.024151672 0.026722591 0.0036898097
-0.020976575 0.012253636 0.025781231 -0.00011372866 -0.08482027 -0.046860643 -0.048086733 -0.15148458
-0.10630181 0.00040105014 -0.075401865 -0.056891214 -0.005288815 -0.021325424 0.009501226 -0.005276326
0.01373555 0.018325148 -0.02469372 -0.02724155 -0.037252486 -0.0025039932 0.0046253162 0.008203206
0.009548036 -0.00018700569 -0.017477134 0.024139028 0.014193289 -0.02331436 0.0056859194 -0.013867003
0.0006830805 -0.029743683 -0.012129463 0.03355549 0.0046352446 0.004804542 0.019440083 0.0031321144
0.000141042 -0.010857635 0.0039584236 0.0100519685 0.0076184017 -0.014460141 -0.008217471 0.005095785
-0.0025526115 -0.0023294801 0.008154824 0.0028064677 -0.0016908204 0.00452884 -0.03883109 -0.043517254
-0.037439786 -0.030405274 -0.010037074 -0.021023043 0.003342814 -0.00016448752 -0.018711984 -0.012560331
-0.034742612 -0.024465106 0.033219248 0.065703295 0.04366519 0.10935689 0.04316901 -0.07904446
0.070934266 -0.0022716096 -0.10561374 0.009853821 -0.014240552 -0.018395567 -0.034317113 -0.039774895
-0.040702432 0.0125550805 -0.025433157 0.0028037839 0.0041301567 0.0071490193 0.0047584446 0.004585744
0.0023566836 0.015371228 0.03093123 0.0066035474 0.00035597562 -0.04417712 -0.035361413 0.0021674298
-0.07224532 -0.13804874 -0.0023998653 -0.08938024 -0.1155413 -0.002865464 0.0044061053 -0.037357662
-0.007184912 -0.002414825 -0.0050728447 0.010101919 -0.0035152156 -0.006926809 0.039203808 -0.064889684
-0.06742937 -0.04033333 -0.06065756 -0.06622693 -0.04979571 -0.047465436 -0.04615752 -0.061912674
0.0046573034 -0.0056415196 -0.030571157 0.004218749 -0.0006104617 0.01589279 -0.010433139 -0.018504124
-0.004304149 0.01273756 0.009406117 0.0024779688 -0.0012722951 -0.010099748 -0.010899575 -0.002259134
-0.014010551 -0.015079765 -0.066898204 -0.093973786 -0.047319576 -0.14654422 -0.20208676 -0.11854176
-0.13262057 -0.16309308 -0.10254974 0.030242054 0.009358071 0.022776559 0.016458 0.0018743096
0.015856272 0.013596486 0.0062011685 0.01434334 0.008947327 8.712259e-06 -0.004958797 0.025734035
0.009320337 -0.0048989626 -0.012043927 -0.015912522 -0.021531016 -0.0062441328 -0.0060345577 -0.0071688406
0.05450972 0.0019206651 0.031694036 -0.010730001 -0.02796757 0.05019126 0.01823613 0.017325038
0.025741601 0.012037442 -0.0068246373 0.013814338 0.01036201 0.021513643 0.017287152 0.009625845
-0.013564353 0.024661632 -0.0086940825 -0.050442737 0.02167935 0.016849715 0.01341508 0.035437703
-0.008242004 0.007931446 0.002931521 0.0072424067 0.0057496056 0.0034734756 -0.0120228585 -0.017919406
-0.021934621 0.02166762 -0.01718838 -0.035166718 0.005522116 -0.0020830561 0.0069949133 -0.0006394226
0.0045578456 -0.019349447 -0.012054277 -0.008471747 -0.018219322 0.018133076 -0.003959968 -0.01958512
0.0046474542 -0.008655091 -0.0014189427 0.00020578923 0.027198903 0.06686314 -0.020494632 0.03156831
0.03604713 -0.038257312 -0.010442847 0.006546145 -0.0077853464 -0.016124137 -0.02211225 -0.018222095
00000000: 1e97 abbc d336 8cbb 93ae a63b 9f6a 05bc
00000010: 580d 2c3d 71e3 ba3c f08d 1cbc c775 643d
00000020: 085f ee3c 6e09 733d b5b3 2e3d 4b2b 313d
00000030: 4e05 b93c 3cbd 56bc 3ee3 c93b f959 3a3d
00000040: c817 f63c 2527 133d 16b0 87bc 4e37 25bd
00000050: 59a5 43bd bad9 c5bc 56e9 da3c bcd0 713b
00000060: 11d7 abbc 79c3 483c 2933 d33c 9c81 eeb8
00000070: 40b6 adbd f2f0 3fbd 98f6 44bd c61e 1bbe
00000080: c3b4 d9bd 0a44 d239 4b6c 9abd c306 69bd
00000090: cc4d adbb a8b2 aebc 08ab 1b3c 08e5 acbb
000000a0: 130b 613c 9f1e 963c 7c4a cabc ac29 dfbc
000000b0: 1096 18bd 091a 24bb f78f 973b bd66 063c
000000c0: 5e6f 1c3c f516 44b9 352c 8fbc 36bf c53c
000000d0: f88a 683c c2fd bebc f350 ba3b 6d32 63bc
000000e0: c210 333a 06a9 f3bc a8ba 46bc 7b71 093d
000000f0: 40e3 973b 6b6f 9d3b cf40 9f3c 2944 4d3b
00000100: ace4 1339 39e4 31bc aab5 813b 03b1 243c
00000110: c9a3 f93b 3aea 6cbc 92a2 06bc 8bfa a63b
00000120: b749 27bb 31aa 18bb d09b 053c b7ec 373b
00000130: 859e ddba aa66 943b 590d 1fbd 263f 32bd
00000140: 765a 19bd 7b14 f9bc 8a72 24bc 8438 acbc
00000150: 1d13 5b3b 487a 2cb9 e049 99bc d9c9 4dbc
00000160: 454e 0ebd 0c6b c8bc e810 083d 738f 863d
00000170: 45da 323d 81f6 df3d fdd1 303d 10e2 a1bd
00000180: fc45 913d 49df 14bb 044c d8bd ec71 213c
00000190: 3451 69bc 4db2 96bc 1a90 0cbd 00eb 22bd
000001a0: 98b7 26bd d3b3 4d3c 3259 d0bc b0bf 373b
000001b0: 4456 873b 5242 ea3b baec 9b3b 0244 963b
000001c0: 9772 1a3b 9ad7 7b3c 7e63 fd3c 9262 d83b
000001d0: 3da2 ba39 11f3 34bd 21d7 10bd 700b 0e3b
000001e0: 5bf5 93bd a65c 0dbe 0f47 1dbb fd0c b7bd
000001f0: eba0 ecbd 82ca 3bbb 1761 903b 5904 19bd
00000200: 696f ebbb 0a42 1ebb 1b3a a6bb 8582 253c
00000210: 885f 66bb 49fa e2bb 2c94 203d e2e4 84bd
00000220: 6918 8abd 9034 25bd 1074 78bd fca1 87bd
00000230: 96f6 4bbd 1e6b 42bd ab0f 3dbd 2598 7dbd
00000240: 4b9c 983b 7fdc b8bb 5d70 fabc 6e3d 8a3b
00000250: 6407 20ba 9931 823c c2ef 2abc f695 97bc
00000260: d209 8dbb 33b1 503c 1d1c 1a3c 6b65 223b
00000270: 24c3 a6ba 6a79 25bc 2294 32bc fb0d 14bb
00000280: 838c 65bc 1e11 77bc ed01 89bd 5475 c0bd
00000290: 2cd2 41bd b00f 16be d5ef 4ebe 06c6 f2bd
000002a0: b0cd 07be df01 27be 9905 d2bd 2fbe f73c
000002b0: 9852 193c e895 ba3c edd2 863c 65ab f53a
000002c0: 03e5 813c ccc3 5e3c 2c33 cb3b 5400 6b3c
000002d0: cf97 123c de2a 1237 677d a2bb 2fd0 d23c
000002e0: 54b4 183c 7a87 a0bb e453 45bc fa5a 82bc
000002f0: d061 b0bc 959b ccbb 8abd c5bb 98e8 eabb
00000300: 9645 5f3d d4be fb3a 9bd1 013d e3cc 2fbc
00000310: 3f1c e5bc 5a95 4d3d f063 953c 3ded 8d3c
00000320: 0de0 d23c b138 453c 35a1 dfbb 8855 623c
00000330: 6cc5 293c 613d b03c c99d 8d3c b8b5 1d3c
00000340: 053d 5ebc 3107 ca3c a071 0ebc 0b9d 4ebd
00000350: e498 b13c 6a08 8a3c ecca 5b3c 2027 113d
00000360: 7809 07bc e5f2 013c c31e 403b b651 ed3b
00000370: 3067 bc3b 40a3 633b 86fb 44bc b8cb 92bc
00000380: 3cb0 b3bc 4b80 b13c a5ce 8cbc fa0a 10bd
00000390: def2 b43b e283 08bb 9635 e53b ed9e 27ba
000003a0: fb59 953b bb82 9ebc 4d7f 45bc 15cd 0abc
000003b0: b040 95bc d18b 943c 9fc2 81bb f970 a0bc
000003c0: ac49 983b 15ce 0dbc d1fb b9ba 20c9 5739
000003d0: 3cd0 de3c 8bef 883d 5ce4 a7bc c64d 013d
000003e0: 28a6 133d b3b3 1cbd 7a18 2bbc 0b81 d63b
000003f0: 381c ffbb c416 84bc c024 b5bc 8146 95bc
