image_model_weights/epoch_2/projector_bias.npy (npy, 640 bytes, 1 tensors)

array f4 [128]
0	0xbd3013df	-0.0429877
1	0x3ccc8c36	0.024969202
2	0x3cc686f9	0.024234282
3	0xbd1ffba9	-0.03905836
4	0x3ce4b428	0.027917936
5	0xbcca8f69	-0.024726586
6	0xbcdccc5c	-0.026952915
7	0x3c870b70	0.016484946
8	0xbb90521d	-0.00440432
9	0x3cfe2a04	0.031025894
10	0xbbcb6cd8	-0.0062080435
11	0x3caedf0b	0.02134659
12	0xbd089a2a	-0.033350147
13	0xbc957397	-0.018243594
14	0xbd2f2f0b	-0.042769473
15	0x3cf7ef61	0.030265512
16	0xbcf28fb3	-0.029609537
17	0x3c5ba767	0.013406611
18	0xbcee6bdc	-0.029104166
19	0xbb053f09	-0.0020331761
20	0xbd298691	-0.0413881
21	0xbd15977a	-0.036521412
22	0xbd21813f	-0.0394299
23	0x3d3921e2	0.04519833
24	0xbc4a508d	-0.012348306
25	0xbc52d39b	-0.0128678335
26	0xbc823a9f	-0.015897093
27	0xbccb1682	-0.024791006
28	0x3c9c1c91	0.01905659
29	0xbc48976e	-0.012243135
30	0x3c55ee2b	0.013057272
31	0xbb7d200f	-0.0038623845
32	0x3d16c85d	0.036812175
33	0xbce56606	-0.02800275
34	0xbc89c8d9	-0.016819404
35	0xbcdf464c	-0.0272552
36	0xbd23829e	-0.039919488
37	0x3b70a1a2	0.0036717434
38	0x3d39faae	0.045405082
39	0x3d11b6a9	0.03557459
40	0x3c7697a0	0.015050799
41	0xbd163f38	-0.036681384
42	0xbc6178a5	-0.013761674
43	0xbd038464	-0.03210868
44	0xbd1facd6	-0.03898319
45	0xbc932aef	-0.017964808
46	0x3d160b87	0.036632087
47	0xbc94ae87	-0.018149627
48	0x3cc5b7e3	0.024135536
49	0xbcf77ddb	-0.03021138
50	0xbb94c03a	-0.0045395168
51	0xbd1ac317	-0.03778371
52	0x3c5848cd	0.013200951
53	0x3c472a8a	0.012156138
54	0xbcc9b1a4	-0.024620838
55	0x3c0929f3	0.008371818
56	0xbc20d210	-0.009815708
57	0x3cfcec87	0.030874504
58	0x3cae8344	0.021302827
59	0xbc88ccb8	-0.01669918
60	0xbd1832ac	-0.0371577
61	0xbcd93f0d	-0.026519323
62	0xb90fcd02	-0.00013713914
63	0x3d209e06	0.039213203
64	0xbd0619b1	-0.032739345
65	0x3d2b986c	0.041893408
66	0x3ccdb50f	0.02511075
67	0xbcbdb07a	-0.02315544
68	0xbce590ce	-0.02802315
69	0x3d04683c	0.03232597
70	0x3ce46460	0.027879894
71	0x3d2559ff	0.04036903
72	0xbc7e97f9	-0.015539163
73	0xbcc16428	-0.023607329
74	0xbca1709b	-0.019707015
75	0x3c6b785b	0.014371957
76	0xbd083b32	-0.033259578
77	0x3cdeb627	0.027186466
78	0xbcbae8f8	-0.022816166
79	0x3d08f4d5	0.033436615
80	0xbd0e7107	-0.03477576
81	0xbc91cbab	-0.017797312
82	0xbc8ab697	-0.016932769
83	0x3cd06b2e	0.025441732
84	0xbce91a31	-0.028454872
85	0x3d18d588	0.037313014
86	0xbd2e32e8	-0.042529017
87	0x3b87833d	0.004135518
88	0xbbe26823	-0.0069093867
89	0xba8ba537	-0.0010654096
90	0xbd1922c5	-0.037386674
91	0xbd012761	-0.031531695
92	0xbcda5b2e	-0.026654806
93	0xbcc2b428	-0.023767546
94	0x3cb6f14f	0.022331862
95	0x3caee8b1	0.02135119
96	0xbcc0d0a8	-0.023536995
97	0xbc11b885	-0.008894091
98	0x3c593c41	0.013258995
99	0xbba4422c	-0.005012771
100	0x3cca2374	0.024675108
101	0xbd08787d	-0.03331803
102	0x3d20bf62	0.039245017
103	0xbd26c67d	-0.040716637
104	0x3d09fb79	0.03368709
105	0x3c53286d	0.012888056
106	0xbca693d6	-0.020334166
107	0xbbd1b664	-0.0063999165
108	0xbd006bc5	-0.031352777
109	0x3ab0b6ec	0.0013482249
110	0x3d11766e	0.035513334
111	0x3d203133	0.03910942
112	0xbcf1c1c3	-0.029511338
113	0x3bb18943	0.005417974
114	0x3cb48c93	0.022039687
115	0xbaf9e755	-0.0019066135
116	0xbcd9f59d	-0.026606375
117	0xbc95a45a	-0.018266845
118	0xbca7508e	-0.020424154
119	0xbd0a2c6d	-0.033733774
120	0x3c41ee42	0.01183659
121	0x3c6e760e	0.014554514
122	0xbb170705	-0.0023044955
123	0x3d2d56fa	0.042319275
124	0xbbe20c66	-0.0068984507
125	0x3ce5eb78	0.028066382
126	0x39eaa0fb	0.00044751898
127	0xbc95d1a1	-0.018288435
