aggregated_weights/classifier_weight.npy (npy, 1664 bytes, 1 tensors)

array f4 [3, 128]
0	0xbd841225	-0.06448773
1	0x3cb1b9c0	0.021695018
2	0xbdaf5bde	-0.08562444
3	0x3da7b0bc	0.08188006
4	0xbd9346e3	-0.07191255
5	0x3c916b36	0.017751317
6	0xbd84856a	-0.06470759
7	0xbd4b9ece	-0.049711995
8	0x3d959d9c	0.07305452
9	0xbd5766af	-0.05258816
10	0xbce51630	-0.027964681
11	0xbd9fa7e8	-0.077956975
12	0x3ba9ffd8	0.0051879697
13	0x3d88998d	0.066699125
14	0xbc043aae	-0.008070631
15	0x3c4de7f4	0.012567509
16	0x3c502314	0.012703676
17	0x3dbdb6e1	0.09263397
18	0x3d9e9822	0.07743861
19	0xbb37fcc0	-0.0028074235
20	0x3b59c110	0.0033226646
21	0x3d2016a9	0.03908411
22	0x3d736bfc	0.059429154
23	0x3d901e02	0.070369735
24	0x3c489d18	0.012244485
25	0x3db441e6	0.08801632
26	0xbdbb9b7b	-0.09160515
27	0x3dac05db	0.08399554
28	0x3d2d628c	0.04233031
29	0x3d5c1302	0.053729065
30	0x3d86e7f6	0.06587212
31	0xbd9115a9	-0.070842095
32	0x3c8546cc	0.01626911
33	0xbd5369f6	-0.051614724
34	0x3dc06c90	0.09395707
35	0xbd0edd02	-0.03487874
36	0xbd573fbd	-0.05255102
37	0x3cf454c0	0.029825568
38	0x3ad97280	0.001658991
39	0x3d18c6c1	0.03729892
40	0xbdc7de24	-0.09759167
41	0xbd4b5589	-0.04964212
42	0x3d6e8924	0.058236256
43	0x3c0faf4c	0.008769821
44	0xbb654340	-0.003498271
45	0xbdd3b900	-0.1033802
46	0x3c209262	0.009800525
47	0xb9e80b50	-0.00044258917
48	0xbda98f0e	-0.08279239
49	0x3c0a849e	0.00845447
50	0xbd5410f0	-0.051773965
51	0x3c64c278	0.013962381
52	0xbd8740c6	-0.066041514
53	0xbb335fb4	-0.0027370276
54	0x3b34c228	0.0027581546
55	0xbd78ce40	-0.06074357
56	0xbc6f6fc0	-0.014614046
57	0xbd233d4f	-0.03985339
58	0xbd56cd81	-0.052442078
59	0xbbc3fd04	-0.0059810895
60	0xbd2a1f25	-0.041533608
61	0x3d88fba9	0.06688625
62	0xbda8a488	-0.08234507
63	0x3da8c0a0	0.08239865
64	0xbda65ad8	-0.08122796
65	0xbd86813d	-0.06567619
66	0x3dba1936	0.0908684
67	0xbdd855fb	-0.105632745
68	0xbafde460	-0.0019370429
69	0xbb580bde	-0.0032966058
70	0x3d67804a	0.05651883
71	0xbcc336af	-0.023829786
72	0x3d6d395a	0.057916023
73	0x3cac4181	0.021027328
74	0x3d864b61	0.06557346
75	0xbd7f5d32	-0.062344737
76	0xbd60e9b4	-0.054910377
77	0xbd7a218c	-0.06106715
78	0x3cbfed15	0.02342848
79	0xbd0b9d99	-0.034085844
80	0x3c40882e	0.011751218
81	0xbd38b6c8	-0.04509619
82	0xbbb15bd0	-0.005412556
83	0x3d8303a2	0.06397177
84	0xbd9c1d38	-0.076227605
85	0xbd516359	-0.051120136
86	0x3aab8d60	0.0013088398
87	0xbcb052b1	-0.021523805
88	0xbda458f4	-0.08024779
89	0x3d24a7ce	0.040199094
90	0x3dab9b3c	0.08379218
91	0x3d3fbc0a	0.046810187
92	0x3cafdbc8	0.021467105
93	0x3d1501a5	0.03637852
94	0x3c818d9b	0.015814593
95	0x3d14a375	0.036288697
96	0x3c9ba8a0	0.019001305
97	0xbd7e1090	-0.062027514
98	0x3bfcdeec	0.007717004
99	0x3d18b4ec	0.037281916
100	0x3d84cba3	0.06484153
101	0xbd8b6970	-0.0680722
102	0xbc9ed186	-0.019387018
103	0x3d70e0a4	0.058807984
104	0x3cc36e1a	0.023856211
105	0xbda83ca5	-0.08214692
106	0x3d0b216f	0.03396743
107	0x3d917882	0.07103063
108	0x3dde1c12	0.10845198
109	0xbbc74cc8	-0.006082151
110	0x3bcc051a	0.006226194
111	0x3c81f346	0.015863072
112	0x3d3a6b8a	0.045512713
113	0xbcbef326	-0.023309302
114	0xbd73c12a	-0.059510387
115	0xbc4b710c	-0.012417089
116	0x3ca1032a	0.019654829
117	0x3d84edea	0.06490691
118	0xbdc1e638	-0.09467739
119	0x3cce48ac	0.025181137
120	0x3cf18fbc	0.029487483
121	0xbd00d3f3	-0.03145213
122	0xbd510e7b	-0.0510392
123	0xbd2355f6	-0.0398769
124	0x3d50c486	0.05096867
125	0x3ccbd3e4	0.02488131
126	0xbc838bee	-0.016057935
127	0x3c144718	0.009050153
128	0xbd098913	-0.03357799
129	0x3b2bc4ac	0.0026209755
130	0x3d69fc3e	0.057125323
131	0x3a5e3970	0.0008477187
132	0x3a9a7c80	0.0011786371
133	0x3d760ffa	0.06007383
134	0xbd9fe26c	-0.078068584
135	0xbb8b70ec	-0.0042554047
136	0xbd6329ba	-0.055459715
137	0x3d5b725c	0.05357586
138	0xb9ccb400	-0.00039044023
139	0x3d1e7b30	0.0386917
140	0x3d95e42d	0.07318912
141	0xbbd29c7c	-0.006427346
142	0xbcadd0d6	-0.021217745
143	0x3dbfdace	0.093679056
144	0xbd04a06c	-0.032379553
145	0xbc99fad1	-0.018796356
146	0xbcd9f648	-0.026606694
147	0x3b9ef0e4	0.0048504937
148	0xbd251ccc	-0.040310666
149	0xbd33e655	-0.043920834
150	0xbd60beb2	-0.05486936
151	0x3da76270	0.08173072
152	0xbd276293	-0.040865492
153	0xbd8964e4	-0.067086965
154	0xbd020faa	-0.03175322
155	0x3ba45e4e	0.005016125
156	0xbcd2c1a5	-0.025727103
157	0xbd2814e2	-0.04103554
158	0xbbaec65c	-0.005333705
159	0x3c5a78f7	0.013334504
160	0xbd00c37b	-0.031436425
161	0xbaa4cd7e	-0.0012573448
162	0x3d69a0e6	0.05703821
163	0x3d96d482	0.073647514
164	0xbd8ece09	-0.06972892
165	0xbd3b9420	-0.04579556
166	0xbced36e8	-0.028956845
167	0x3cc7ec94	0.024404801
168	0xbbd575a8	-0.00651427
169	0xbb9cd0e0	-0.004785642
170	0xbd0d6e80	-0.03452921
171	0xbd8b16bb	-0.06791445
172	0xbd9ba5e2	-0.07599999
173	0xbbba0ef8	-0.005678054
174	0xbbbb1ec8	-0.0057104565
175	0xbd4cfcb3	-0.05004568
176	0x3db2ca68	0.08730012
177	0xbdcb8f76	-0.099394724
178	0x3ceffcc0	0.029295325
179	0x3ccef619	0.025263833
180	0x3da67e60	0.08129573
181	0xbd5527aa	-0.05203978
182	0xbd987f86	-0.07446198
183	0x3dcee26a	0.10101779
184	0x3d5197e7	0.051170256
185	0x3d8e8020	0.06958032
186	0x3d558f1d	0.052138437
187	0x3d86232a	0.06549676
188	0x3cb06ee6	0.021537255
189	0xbd28dce2	-0.041226275
190	0xbc9aa661	-0.018878164
191	0xbc8ce5ea	-0.017199475
192	0x3c49be8b	0.012313495
193	0x3d3e03c0	0.046390295
194	0xbd23b787	-0.039969947
195	0xbc9ddc50	-0.019270092
196	0x3c0ff7ae	0.008787079
197	0xbd0a6bc3	-0.033794176
198	0x3c995982	0.018719438
199	0x3d072011	0.032989565
200	0xbd8e69d1	-0.06953777
201	0xbd9d1f5c	-0.07671997
202	0xbd063a3b	-0.032770377
203	0x3caed97c	0.021343939
204	0x3da80c62	0.08205487
205	0x3dbf5adf	0.09343504
206	0x3c6eff18	0.014587186
207	0x3da8dee4	0.08245638
208	0xbde48e48	-0.111599505
209	0x3ca2207e	0.019790884
210	0x3d54a8fe	0.051918976
211	0xbd3e88ac	-0.04651706
212	0x3cb6a0d0	0.022293478
213	0x3d4a0346	0.049319528
214	0xbd7f6df2	-0.06236071
215	0xbd05673d	-0.03256916
216	0x3cceba5d	0.02523535
217	0x3db831df	0.08993887
218	0xba6290a0	-0.00086427666
219	0x3d7003f9	0.05859754
220	0xbca30798	-0.019901082
221	0x3c19a2c5	0.009377186
222	0xbbb3e170	-0.0054895207
223	0x3cc3e7da	0.023914266
224	0xbc78566e	-0.015157325
225	0x3d824043	0.06359913
226	0x3abf8500	0.0014611781
227	0xbcd189f4	-0.025578476
228	0xbcf72c2e	-0.030172434
229	0x3d8e701a	0.069549754
230	0xbd9c9c6b	-0.07647022
231	0x39cd3a80	0.00039144233
232	0xbd8eecc2	-0.06978752
233	0x3d21b019	0.03947458
234	0xbc885506	-0.016642105
235	0x3c8b69e6	0.01701827
236	0xbc888744	-0.016666062
237	0xbdc2e876	-0.09516995
238	0x3d716e00	0.058942795
239	0xbd0d18c1	-0.034447435
240	0xbd0b356c	-0.033986494
241	0x3cadbb0c	0.021207355
242	0xbc3dbc06	-0.011580473
243	0x3d97590e	0.07390033
244	0x3ccdfb65	0.025144288
245	0xbcf38a11	-0.029728921
246	0xbb9a1856	-0.004702608
247	0xbda62f92	-0.08114542
248	0x3d323511	0.04350764
249	0x3d425e7c	0.04745339
250	0x3daf9023	0.08572414
251	0x3c7ef178	0.0155605
252	0xbdb6749e	-0.08908962
253	0xbc2c5313	-0.010517853
254	0x3c61b6ac	0.0137764625
255	0xbb899590	-0.0041987374
