aggregated_weights/projector_bias.npy (npy, 640 bytes, 1 tensors)

array f4 [128, 1]
-0.037234236 0.024742454 -0.029532045 0.033559643 -0.028349463 -0.032707788 -0.0021009666 0.039190352
-0.024770305 -0.027282055 -0.036632158 -0.018277157 0.01316971 -0.02292059 -0.015673652 -0.02470056
0.012946867 -0.01687713 0.005300033 -0.00440959 0.025058214 -0.03034247 0.031024812 -0.028136838
0.008502202 0.03909199 0.0004736595 -0.007014497 -0.02699862 -0.031236438 0.01435919 0.042337596
-0.037369102 0.027234286 -0.012820711 -0.02673719 -0.03642329 -0.040525608 0.003703964 0.030488495
0.021171276 -0.00015953137 -0.008890945 0.025436323 -0.037582044 0.03685302 -0.016830318 0.01627686
0.024387524 0.040211402 -0.026726983 -0.024357356 -0.023938768 -0.0070398175 -0.0037216358 0.012435548
0.024369739 -0.0016389474 -0.015761761 -0.032015786 -0.029849326 0.021988027 0.03221565 -0.026299931
-0.00532601 0.037629556 0.04170345 0.01923345 0.001050323 -0.018480226 -0.019511774 -0.010227241
0.02525222 0.013669198 -0.0059177047 -0.032883562 0.030473672 -0.0026150288 -0.01188393 0.03966562
0.022800691 -0.03522727 0.0046266895 -0.020839639 -0.01184581 -0.016065398 -0.022559106 0.020607863
-0.04378488 0.020621011 0.015895851 0.026995365 -0.02456675 0.046456996 -0.02705827 -0.034773745
-0.02454329 0.015902227 -0.044205993 -0.0077688014 -0.0440474 -0.027504744 -0.012196103 0.0010453011
0.015544824 0.015623031 0.047723062 0.00913455 -0.044499546 -0.043808393 0.023835976 0.023811571
-0.043659102 0.00026165764 -0.044082984 -0.044372745 0.043506622 0.026571311 -0.04151824 -0.041779645
0.0441303 0.027069721 -0.041275837 -0.0059889313 0.017440155 0.018370414 0.019410267 0.018360402
00000000: ed82 18bd b0b0 ca3c 30ed f1bc d675 093d
00000010: 223d e8bc 9af8 05bd 5fb0 09bb 1086 203d
00000020: 18eb cabc 9e7e dfbc 9a0b 16bd fab9 95bc
00000030: c4c5 573c f6c3 bbbc 0866 80bc d458 cabc
00000040: 191f 543c e841 8abc e6ab ad3b 527e 90bb
00000050: e246 cd3c c690 f8bc bf27 fe3c 3a7f e6bc
00000060: d24c 0b3c ec1e 203d 8055 f839 ded9 e5bb
00000070: 362c ddbc 8fe3 ffbc cf42 6b3c 306a 2d3d
00000080: 5810 19bd 701a df3c f60d 52bc f407 dbbc
00000090: 9630 15bd 2efe 25bd 34be 723b 02c3 f93c
000000a0: 626f ad3c e047 27b9 54ab 11bc d65f d03c
000000b0: a1ef 19bd 31f3 163d bcdf 89bc 0d57 853c
000000c0: 58c8 c73c b6b4 243d 8cf2 dabc 1489 c7bc
000000d0: 3c1b c4bc 45ae e6bb b0e6 73bb 78be 4b3c
000000e0: 0ca3 c73c f3d1 d6ba cf1e 81bc fc22 03bd
000000f0: 9386 f4bc 3c20 b43c 8ff4 033d f472 d7bc
00000100: cf85 aebb 7321 1a3d 3dd1 2a3d 788f 9d3c
00000110: feaa 893a d863 97bc 28d7 9fbc 2890 27bc
00000120: bedd ce3c c6f4 5f3c 4ee9 c1bb eab0 06bd
00000130: eca3 f93c e760 2bbb d1b4 42bc 6b78 223d
00000140: 84c8 ba3c 784a 10bd 7c9b 973b e4b7 aabc
00000150: ee14 42bc 959b 83bc e0cd b8bc d2d1 a83c
00000160: c657 33bd 65ed a83c 0438 823c 6225 dd3c
00000170: 3540 c9bc b149 3e3d 4ea9 ddbc ea6e 0ebd
00000180: 020f c9bc 6345 823c 5811 35bd 6e91 febb
00000190: 0c6b 34bd a151 e1bc 2ad2 47bc 7c02 893a
000001a0: b8af 7e3c bef7 7f3c 4279 433d 14a9 153c
000001b0: 2845 36bd 6e70 33bd aa43 c33c 7c10 c33c
000001c0: e3d3 32bd 182f 8939 5c90 34bd 32c0 35bd
000001d0: 0034 323d 14ac d93c 080f 2abd 2221 2bbd
000001e0: f9c1 343d 52c1 dd3c da10 29bd cc3e c4bb
000001f0: a8de 8e3c 8d7d 963c 4802 9f3c 8e68 963c
