aggregated_weights/projector_weight.npy (npy, 262272 bytes, 1 tensors)

array f4 [128, 512]
000000 58 44 84 3c fc 1b 53 3d 78 10 27 bd dd 09 6e 3c
       0.01614587 0.05154036 -0.04078719 0.014528719
000010 3a fd 58 3c b7 68 0c 3c 12 e4 9b bc fc 76 81 bc
       0.013243968 0.008569888 -0.01902965 -0.015803806
000020 f4 34 b5 bc 24 d3 f4 3c b4 a9 38 bc 5a 78 14 bd
       -0.022119977 0.029885836 -0.011270929 -0.03624759
000030 80 1d c8 b8 36 31 9e 3b 24 1d a7 ba 78 39 ad bc
       -9.542238e-05 0.0048276437 -0.0012749773 -0.021145567
000040 e6 13 ef 3c 58 8b 40 3d e6 37 9b bc 02 16 a0 bb
       0.029184293 0.04700789 -0.018947553 -0.004885436
000050 30 27 f6 3a 52 5b 08 bd 9a f0 5b bc b1 5d cd bb
       0.0018779989 -0.033290215 -0.013424063 -0.0062672724
000060 4a 03 53 bc a0 a7 8a bc ef c8 d4 3c f0 68 a9 3c
       -0.012879202 -0.016925633 0.025974719 0.02067992
000070 a2 cd c3 3b 98 da 83 bd b8 16 d1 3a 67 56 e5 bc
       0.005975441 -0.06438178 0.0015952205 -0.027995301
000080 72 0b 31 3c 31 58 03 3d a2 67 15 bd 94 a7 13 3d
       0.010805951 0.032066528 -0.036475785 0.036048487
000090 29 42 8b bc da c5 c2 bb 62 c5 fa 3b 52 70 65 3c
       -0.016999321 -0.005943996 0.0076529244 0.01400383
0000a0 72 bf cc bc a3 9c 32 bc 25 44 86 bc 40 ef b1 bc
       -0.024993632 -0.010901603 -0.016389916 -0.021720529
0000b0 d4 ee f0 3c e1 93 04 3d a6 e5 c3 bc d6 92 20 bd
       0.029410757 0.03236759 -0.023913216 -0.039202534
0000c0 18 0d 48 3b 30 3b b3 3a 02 b0 89 3c 9a 89 e0 bc
       0.0030525383 0.0013674255 0.01680756 -0.027409364
0000d0 0f 61 b7 3b 4b 86 16 3c fc 0e 91 3b 01 9a 5e 3c
       0.005596287 0.009187291 0.004426835 0.013586522
0000e0 4d d9 d6 bb ca 8b ee 3a 03 35 62 3c a8 e6 15 3c
       -0.006556666 0.0018199619 0.013806584 0.009149231
0000f0 64 5e 15 3c 9e 0a 2f bd dc af 26 bd 55 ab 88 bc
       0.009116743 -0.042734735 -0.040695056 -0.01668326
000100 3a 7d fb bb e6 3e 8a 3c 52 68 28 3c 1c 18 48 bb
       -0.0076748403 0.016875695 0.010278778 -0.0030531948
000110 f9 ee b9 bc 3b 87 3d 3d 44 28 00 bc d8 a9 02 3b
       -0.022696959 0.046271544 -0.0078221 0.001993766
000120 d0 53 80 3c 5c 52 9b 3c ac e9 81 bc 06 c4 88 3c
       0.015664965 0.01896017 -0.015858494 0.016695034
000130 34 48 0c bd d9 67 12 3c 60 9e 8f 39 46 27 ad 3c
       -0.034248546 0.008935892 0.00027393084 0.021136891
000140 2a 4f f0 bc 2f 8c 1a bd eb 8a c7 3b cd 9d b3 bc
       -0.029334623 -0.037731346 0.0060895584 -0.021925831
000150 14 64 32 3d 3d ee 80 bc 0d 69 4d 3c 90 36 97 3b
       0.043552473 -0.0157386 0.012537253 0.0046146587
000160 72 ad 42 3c 58 0f 51 3b 8e 23 17 bc ec 54 3f bb
       0.011882173 0.0031900015 -0.0092247855 -0.0029194904
000170 a1 80 c6 3c de 83 a4 3c 37 04 be bc 86 75 62 ba
       0.024231257 0.02008241 -0.02319537 -0.0008638728
000180 c0 b2 ad 3a c6 a5 eb 3c 7b 09 d1 3c b4 00 dd 3a
       0.0013252124 0.02876557 0.025517216 0.0016861171
000190 60 bf 95 3c d4 e8 13 3c 82 f4 c6 bb 54 06 8f 3c
       0.018279731 0.0090276785 -0.006071628 0.017459072
0001a0 38 57 c8 ba b4 59 0d 3d f6 8a b6 3a 58 b5 03 bd
       -0.0015284782 0.034509376 0.0013926912 -0.032155365
0001b0 d8 34 03 3d 58 78 84 3c b8 31 c8 3b 20 a3 63 3c
       0.032032818 0.016170666 0.0061094426 0.0138938725
0001c0 50 dd 50 3c 05 10 c9 3c 68 aa 50 bc 44 e7 1f 3d
       0.0127480775 0.024543772 -0.0127359405 0.03903891
0001d0 d6 15 45 3d 5f ab 2f 3d 91 d2 b4 bc c0 95 45 bb
       0.048116527 0.04288804 -0.022073062 -0.0030149072
0001e0 3f 08 84 3c 96 da 45 3d 2a 6b 39 3d 6a 02 f3 3c
       0.016117213 0.048304163 0.045268215 0.029664237
0001f0 3c 34 9f bc 9c b7 a2 3b 6a be 47 3d 44 f5 f4 bc
       -0.019434087 0.0049657356 0.048765577 -0.029902108
000200 b1 1f 06 bd 00 11 21 39 ff 70 9f bc ba 7f 39 3d
       -0.032745067 0.0001536049 -0.01946306 0.045287825
000210 73 07 2c 3d 54 f0 02 3d fa 9c a4 3b 80 db 9c bb
       0.04199929 0.031967476 0.005023596 -0.0047869086
000220 c9 1d 48 bd a9 e1 85 3b 0e 9c f9 3b b2 b2 36 bc
       -0.04885653 0.0040857387 0.00761748 -0.011151003
000230 48 64 45 bc 69 94 86 bc 26 4b 15 bc cc ab 3f 3c
       -0.012047835 -0.01642819 -0.009112155 0.011698674
000240 c8 d1 07 3d d2 7b fb 3c 76 3f 1e bd 26 17 56 3c
       0.033159047 0.03069869 -0.03863474 0.013067042
000250 76 9b 5c bc 50 c1 44 bd 7d 3b ec bc c0 d6 6f 39
       -0.013464799 -0.04803592 -0.02883696 0.00022872817
000260 c0 c6 ab bc c6 29 aa 3b d1 89 ce 3c 4f 31 08 3d
       -0.020968795 0.005192968 0.0252122 0.03325015
000270 a0 d0 b2 bc af e4 48 3d 4c a2 86 3b f1 27 08 bd
       -0.021827996 0.049046215 0.0041087028 -0.033241216
000280 1a 6c ef ba 2e 8f 45 bc d3 51 25 3b 0a 8b 19 bd
       -0.001826647 -0.0120580625 0.0025225773 -0.037486114
000290 34 85 28 3d 60 5b e6 3c 0a 8c 1d bd f1 45 99 3b
       0.041142657 0.028119743 -0.03846363 0.004677527
0002a0 2c cb cc ba 38 79 ab bb fe c8 5c bd 9a 5f 01 3c
       -0.0015624515 -0.0052329563 -0.05390262 0.007896328
0002b0 62 7c 8a bc f8 41 28 3c 34 43 bf 3c 74 5a dc 3c
       -0.016905013 0.010269634 0.023347475 0.0268986
0002c0 40 26 9e 3b 7d 9d 36 bc 1b d3 8e 3c 11 34 c4 bc
       0.004826337 -0.011145947 0.017434647 -0.023950608
0002d0 0a 48 01 3d 8e 55 9e 3c 82 98 66 bd 7e 45 8a 3c
       0.031562842 0.019327905 -0.056297787 0.01687884
0002e0 9d 9e 15 bd 4f e6 b8 bb 0f d9 a3 bb 09 39 92 3c
       -0.03652822 -0.0056426893 -0.0050002406 0.017849462
0002f0 92 7a 31 3b c4 56 0f bd 16 ae 52 3d 70 e5 06 bb
       0.0027081114 -0.034994856 0.051435553 -0.0020583533
000300 80 8e 13 3d 96 7c 16 3d c0 9f 47 3c b8 20 aa 3a
       0.03602457 0.03673991 0.012184083 0.0012979722
000310 7c ba 20 3c 0e 54 a3 bc 7f bd 1f 3d 41 27 f9 3c
       0.009810086 -0.019937541 0.038999077 0.030414226
000320 83 b4 81 3c 60 ff b3 3c ce f2 cd 3c 93 6d d2 3c
       0.015833145 0.021972358 0.025140192 0.025687015
000330 79 2e af bc 9c 71 16 3c 30 25 9f 3c 36 c2 9f bc
       -0.021384465 0.00918236 0.019426912 -0.019501787
000340 60 07 35 bd ce 6d 13 bc 3d 17 87 3c 34 a7 c2 bc
       -0.044196486 -0.008998347 0.016490573 -0.02376137
000350 76 99 32 bd 16 f9 ad 3b d5 30 84 bc 63 2c 02 bd
       -0.043603383 0.0053092344 -0.016136566 -0.03178061
000360 81 a6 0c bd 1d 0c bb 3c c1 f2 24 3d 99 28 3f 3c
       -0.034338478 0.022832925 0.04027057 0.011667394
000370 08 f5 17 bd 00 0f dd bc 00 73 e7 3b c8 89 a9 3b
       -0.037098914 -0.026984692 0.0070632696 0.0051738955
000380 64 02 07 3c 45 67 81 bd dd e3 35 3d 3d 04 f5 bb
       0.008240316 -0.06318525 0.04440676 -0.007477312
000390 c9 99 a2 3c 27 be d1 bc e4 f8 05 3c 9e 87 03 3d
       0.019848721 -0.025603367 0.008177016 0.032111757
0003a0 9c 46 9e bb 0a 4f 08 bd 15 be 72 bc ad 45 09 bd
       -0.0048301946 -0.033278503 -0.014815827 -0.033513714
0003b0 38 04 76 bb 62 d8 c2 bc aa c7 c6 bc fe 09 e7 3b
       -0.0037539136 -0.02378482 -0.02426513 0.0070507517
0003c0 94 15 26 3d 1b 20 1d 3d 70 c6 a0 ba 01 6c 93 bc
       0.040547922 0.038360696 -0.001226617 -0.017995836
0003d0 d2 d3 ba 3c b0 d0 88 3c 2e a4 5b 3c fa ca 91 bc
       0.022806082 0.016701072 0.013405843 -0.017796982
0003e0 f7 53 13 3d 92 bf e1 bc 48 aa 3f bd 3a cb 3f 3c
       0.035968747 -0.027557168 -0.046793252 0.011706168
0003f0 ab 19 84 3c 00 ba 9e 3b 40 87 d6 ba b4 b2 10 3c
       0.01612552 0.0048439503 -0.0016367212 0.008831669
