lstm_model_weights_fixed/epoch_10/classifier_weight.npy (npy, 1664 bytes, 1 tensors)

array f4 [3, 128]
000000 e9 f9 c8 3d d9 e9 62 3d 0e 74 e2 bd 13 4b e0 3d
       0.098132916 0.055398796 -0.11057292 0.10951819
000010 40 12 31 bd 79 bb 83 bd 62 d4 9a 3d cf 40 f0 3d
       -0.043230295 -0.06432242 0.0756004 0.11731111
000020 70 51 d9 3d 24 0c 98 bd 1e 34 00 3e 4c 62 a9 3d
       0.10611236 -0.07424191 0.12519881 0.08270702
000030 4c b2 07 be cf da 02 be 92 d4 bd 3d 71 dc d6 3d
       -0.13251609 -0.12778781 0.0926906 0.104912646
000040 39 7b a0 bd da 21 ce bd 4c 98 b8 bd c0 cd ae bd
       -0.07836003 -0.100650504 -0.09013423 -0.085353374
000050 f0 4a f2 bd 32 84 53 bc c9 9e ed bd 03 f1 ef bd
       -0.118306994 -0.012909936 -0.116025515 -0.11715891
000060 c7 22 b8 3b fa c3 f1 3d 55 10 86 ba 28 71 3b bc
       0.00561938 0.11804958 -0.0010228256 -0.011440553
000070 f3 bc 7c 3c 27 6f 9a bb bb 5a f1 3d de 92 fa 3d
       0.015425908 -0.0047129574 0.117848836 0.12235044
000080 77 4b b8 bd 63 e6 ed 3d 1b 45 b0 bd 0b 10 ad bd
       -0.08998769 0.116162084 -0.08606931 -0.084503256
000090 38 09 b5 bc 96 df 64 bb 27 90 d4 3c 12 26 9a bd
       -0.022099122 -0.0034923307 0.025947643 -0.075267926
0000a0 35 de 00 3e 4a 2f 82 3d db 4f c1 3b 14 06 e5 3d
       0.12584765 0.06356676 0.005899412 0.111828
0000b0 ac 79 ac bd be 63 83 bd ab 67 69 3d d4 6f a8 3d
       -0.084216446 -0.06415509 0.05698363 0.082244545
0000c0 ee 3d b7 bc 87 4c 9f 3c f7 dc 9d 3d c8 10 f5 3d
       -0.022368398 0.01944567 0.07708161 0.119660914
0000d0 17 ee c5 bd e0 ea c8 3c 03 e5 08 3e 5f cd 0e bd
       -0.09664553 0.02452606 0.13368611 -0.034863826
0000e0 b8 de 1d bd 31 91 52 3c 01 86 b9 3d 5e a9 c1 3d
       -0.03854248 0.012851999 0.09058762 0.09456132
0000f0 21 93 87 3d 12 47 61 bd 4d 2f 34 3d 1a f1 c7 bd
       0.066198595 -0.05499942 0.043990422 -0.09762783
000100 02 9a da 3c ba 3d d5 3d 0f 88 ae 3d 63 8c 92 3d
       0.026684765 0.10412164 0.08522045 0.07155683
000110 dc bd ec 3d e5 50 e3 3d ba 46 05 be 49 89 07 bd
       0.1155965 0.11099414 -0.13015261 -0.03308991
000120 cd 0f 47 bd 98 2f e3 3d 91 d9 93 bd 07 29 a4 bd
       -0.048599053 0.11093062 -0.07219232 -0.08015638
000130 f1 cd e1 bd 41 57 83 bc f1 17 b8 bd d7 05 ca bd
       -0.11025608 -0.016032817 -0.089889415 -0.09864395
000140 74 fc 02 3e 94 df c2 3d 02 ef f8 3b 09 2e d8 3d
       0.12791616 0.095153004 0.0075968513 0.105556555
000150 75 d6 d8 bc b7 2f ec bd 96 bd 8e 3d b9 ff 52 3d
       -0.026469449 -0.115325384 0.069697544 0.051513407
000160 32 a3 a6 3d 4c 0c b3 3d 9d 75 81 3d 8a 92 e4 bd
       0.08136596 0.0874258 0.06321261 -0.111607626
000170 ff 16 73 bd 76 ec 87 bd 2f b7 b6 3c f1 7b 9b bd
       -0.059348103 -0.06636898 0.022304146 -0.07591999
000180 ba bf 16 bd 9a 27 66 bd 7c e9 1a bd ef dd e9 bc
       -0.03680394 -0.05619011 -0.037820324 -0.028548209
000190 a6 49 aa bd 6a 24 de bc b1 b6 c0 bd 55 4b ff 3d
       -0.083148286 -0.027116973 -0.094098456 0.1246554
0001a0 e6 da af bd a2 61 af 3d 70 71 e2 3d 8e c7 b8 3d
       -0.085866734 0.08563544 0.11056793 0.09022437
0001b0 e9 2a 83 bd d9 9e 0e 3e 1c 9a c1 bc 95 f0 cf bd
       -0.06404669 0.13927783 -0.023633055 -0.10153309
0001c0 3d ab b2 bd 55 6b 59 3d 67 54 9f 3d 5e a4 d9 3d
       -0.08724067 0.053080875 0.0777977 0.10627054
0001d0 96 53 f6 bd 8a 7c 13 3d e0 87 48 3d 8a e9 8f 3d
       -0.120276615 0.03600744 0.048957705 0.07026966
0001e0 31 6a d8 3d 2a 37 3e bc 4e 88 d4 3d c8 3c e5 bd
       0.105671294 -0.011609832 0.103775606 -0.11193234
0001f0 f1 95 df 3d 48 0b dd 3d 4d a6 d7 3d df 18 75 bd
       0.10917271 0.10793167 0.10529766 -0.059838172
000200 93 41 08 bc c6 39 93 bb 6b 91 91 3d d2 c6 9c bc
       -0.008316415 -0.004492971 0.071078144 -0.019137774
000210 6f 5b b5 3d ed 0e fe 3d 76 84 de bd 39 ad 69 3d
       0.0885533 0.124051906 -0.10865109 0.057049964
000220 0c 67 b2 bd d9 40 07 3e e4 e6 8f 3d dc 78 99 3d
       -0.08711061 0.13208331 0.07026461 0.07493755
000230 4e 38 f7 3d f6 94 59 bd 52 e1 17 3d 11 4c dc 3d
       0.12071286 -0.053120576 0.037080117 0.10756696
000240 5a b5 62 bd 4c 78 b9 bd bd 33 8d bd b3 ad 23 3d
       -0.05534873 -0.09056148 -0.06894634 0.039960574
000250 37 4e b5 bd 2a ec 45 bc f1 52 cf bd 88 86 ca 3d
       -0.08852809 -0.012080232 -0.10123242 0.09888941
000260 49 1b be bd de ce 9a bd a3 5e 92 bd 85 53 e3 bc
       -0.09282548 -0.07558988 -0.07146957 -0.027749786
000270 9d 37 b8 bd f7 a8 2b bd 02 0a 74 bd 81 85 9d 3b
       -0.089949824 -0.041909184 -0.059579857 0.0048071747
000280 f7 92 1e bd 53 2a 8d 39 9f 34 23 3d c0 98 ea 3d
       -0.038714375 0.0002692515 0.039845105 0.11454916
000290 b6 07 fb bd 40 d1 91 bd a1 11 0b be 59 69 a3 bc
       -0.1225733 -0.071199894 -0.13580944 -0.019947695
0002a0 e3 62 bb bd 08 fa c4 bd a1 5a 09 be dc 35 cd bd
       -0.091497205 -0.09618002 -0.13413478 -0.100200385
0002b0 c4 c5 91 bd ca 89 2f 3c 9f ea c9 bd 5b b4 c6 bd
       -0.07117799 0.010714004 -0.098592035 -0.09702369
0002c0 6d 5d d3 3d 7d f5 01 be 2d b3 f9 3d 8c df e1 ba
       0.10320554 -0.12691303 0.12192378 -0.001723276
0002d0 d9 0a c3 3d ed b4 bd bd 40 09 07 be b4 33 ee 3d
       0.095235534 -0.092630245 -0.13187122 0.11630955
0002e0 d2 82 08 3e 9a 86 92 3d ee 42 22 3d 28 6b a2 3d
       0.13331154 0.071545795 0.03961461 0.07930595
0002f0 92 ba d4 3c d5 de e7 bc 29 95 38 3d 22 47 ed bc
       0.02596787 -0.028304497 0.045064125 -0.028964583
000300 79 69 af bc 1f 2f 1c 3c 63 39 79 3a 4f 69 92 3b
       -0.021412598 0.009532719 0.00095071475 0.00446812
000310 ba 72 2b bd 5a 3d e4 bd dd 8d 1f 3d 76 72 d5 3d
       -0.04185746 -0.111445144 0.03895365 0.10422222
000320 30 39 b2 bd 40 fe d2 bd 7a 2d 16 bb a5 2c 93 3d
       -0.08702314 -0.103024006 -0.002291529 0.0718625
000330 33 4b ac 3d 5c 43 00 3e a1 31 e5 3d fc 0d a0 3d
       0.084127806 0.12525696 0.111911066 0.07815167
000340 80 1e 06 be e6 c9 e9 3c 53 18 ac 3d 89 99 93 bd
       -0.13097572 0.028538655 0.08403077 -0.07207019
000350 4a af 36 3c 56 a0 a2 3d 5a 2a 96 bd 31 b0 07 be
       0.011150191 0.07940738 -0.07332297 -0.13250805
000360 1e 09 6a 3d a0 4c 06 3e 72 d4 05 bd 56 30 b6 3d
       0.0571376 0.13115168 -0.032673307 0.08895938
000370 aa 78 6c bd aa 8e 8e 3b 99 3d d5 bd c8 ab d2 bc
       -0.05773226 0.004350503 -0.104121394 -0.025716677
000380 f3 cf 5a 3b 25 68 a0 3d b3 41 a4 3d 48 a4 2b bb
       0.0033388108 0.07832364 0.08020344 -0.0026190449
000390 8e d0 9d bd f9 de c4 3d ad 7b f2 bd 5b b3 8a bd
       -0.07705794 0.09612841 -0.118399955 -0.067724906
0003a0 43 35 cb bd 91 8f e9 3c 4e 85 ae bc 6e df 3b bd
       -0.09922268 0.02851084 -0.021303799 -0.045867376
0003b0 65 56 40 bd eb 0a 0e be 6a d7 d8 3d 70 28 9b bd
       -0.046957392 -0.13871352 0.10587962 -0.07576072
0003c0 52 f5 26 bd f8 42 71 3d 34 18 a6 bd 16 9f df 3d
       -0.0407613 0.058901757 -0.08110085 0.10919015
0003d0 7b 7e ad 3d ad 89 de bd 37 99 fe bb 62 28 f5 bd
       0.0847139 -0.10866103 -0.0077697295 -0.11970593
0003e0 fb 10 a9 3d f9 1b 8d 3d 98 76 ca 3d 7e a0 d1 3d
       0.08255192 0.06890101 0.09885901 0.102356896
0003f0 ee 50 e1 bd 25 58 cf bb 42 b3 d4 3d 47 94 ab bd
       -0.11001764 -0.0063276463 0.10385753 -0.08377891
