lstm_model_weights_fixed/epoch_10/projector_weight.npy (npy, 262272 bytes, 1 tensors)

array f4 [128, 512]
-0.030313756 -0.039803497 -0.04291701 -0.03496661 -0.015947666 -0.057225812 0.0096697435 0.016216919
-0.0030799808 -0.051153064 0.07156957 0.03409796 0.027075239 -0.038176652 -0.06256013 -0.0453945
-0.08759395 -0.0020714544 -0.050867543 -0.0075403336 -0.037159234 0.05277856 0.06279707 -0.009480763
0.027337145 0.081439264 0.041161206 -0.043914225 -0.022398865 -0.010392705 0.030312112 0.039349616
0.0772766 0.075911455 -0.007423827 -0.031092662 0.037227318 0.043275196 0.055635847 -0.047317717
-0.0052475054 0.009757214 0.022901021 -0.04244152 -0.056085546 -0.07179179 0.024104279 -0.017115215
-0.019912653 0.013362106 -0.054045998 0.017245376 0.017616099 0.038770035 -0.02026819 -0.04645492
0.04895313 -0.020021753 -0.0035355992 -0.027327485 -0.0026184488 0.007929939 0.034569997 0.05432859
0.020031901 -0.07272679 -0.030654386 0.06626391 0.058356248 -0.04133239 0.068948254 0.03469511
-0.021819148 -0.0013221455 0.0026272917 -0.038409587 0.022866433 -0.013449148 -0.073871054 0.04862345
0.01935601 0.007846559 0.03880074 -0.051237192 -0.031258546 0.010019546 -0.050528537 0.061839093
0.06972324 0.0057684174 0.04262393 -0.011574073 0.041497517 -0.009591258 -0.023387128 0.01544706
0.021032019 0.0025939443 -0.00880083 0.047732297 -0.007168638 -0.005404897 -0.032948237 0.011724382
0.004614701 0.03312827 -0.07607426 -0.06612747 -0.04307482 -0.03774005 -0.05966824 -0.032546632
-0.079104945 0.030839507 -0.062728405 -0.035917845 -0.064125784 -0.028653476 0.068102226 0.022843651
-0.03517483 0.020246293 -0.031205356 0.030773228 -0.0070570763 -0.01159229 -0.015472016 0.037966292
-0.014544396 -0.028407622 -0.039251532 -0.030898826 -0.035775695 0.013441526 -0.039480954 -0.031395182
0.0060989573 -0.0017115979 -0.033616167 0.020120852 0.0053513297 0.029283572 0.057324138 -0.008630833
-0.0149141075 -0.020688325 -0.013521733 -0.045538966 -0.007412695 0.016868435 0.0063979942 -0.035155863
0.032234624 -0.04113854 -0.009013417 0.056350347 -0.040029496 -0.009538073 -0.06341613 0.0049606
-0.0511644 -0.029079411 0.07576781 0.004345253 -0.05151382 -0.02855328 0.013219604 -0.0014867682
0.032286577 -0.045811765 0.040616613 0.065405376 0.06043407 -0.039607793 -0.0250332 -0.06351731
-0.0095569175 0.0010408121 -0.07807549 0.04215737 -0.04841874 0.0048213913 -0.0121942 0.04760968
0.044926044 0.062130474 0.033661623 -0.017857684 0.016072927 0.047799043 -0.030110717 0.018725492
0.010342816 -0.02502547 -0.06749895 0.070374504 0.038240302 0.06526866 -0.0090577165 -0.026205534
0.016823951 0.03914248 -0.01822967 -0.068468176 -0.013040301 -0.023723058 -0.0020833192 -0.0061426917
0.016113883 0.006500107 0.058728293 0.07044807 0.006002028 0.0055000763 0.05068738 0.04663573
-0.0074673207 -0.033672225 -0.065328404 -0.017259508 -0.021608159 0.0038892727 0.0068666684 -0.020518627
0.007036115 0.01284067 -0.024931118 -0.0076341284 -0.06308643 -0.0047549387 0.023851298 -0.071920715
-0.005817729 0.0655 0.028106919 0.045793388 -0.01290981 -0.041931216 -0.0024871735 -0.07809412
-0.06741018 -0.04862906 0.03771147 -0.017521912 0.055855814 -0.06427107 0.017759256 0.011033122
-0.0094013745 0.0032224625 0.014047741 -0.034445304 -0.073772766 -0.04807783 -0.010858967 -0.025914561
00000000: 8e54 f8bc fe08 23bd bfc9 2fbd 2639 0fbd
00000010: aea4 82bc 9d65 6abd d86d 1e3c 58d9 843c
00000020: 81d9 49bb e085 51bd 1193 923d 4daa 0b3d
00000030: e4cc dd3c 1f5f 1cbd 871f 80bd 95ef 39bd
00000040: 7564 b3bd 3dc1 07bb 7c5a 50bd e714 f7bb
00000050: 4834 18bd 552e 583d c09b 803d 3455 1bbc
00000060: 26f2 df3c a1c9 a63d a798 283d 67df 33bd
00000070: d37d b7bc 2a46 2abc 1b51 f83c 102d 213d
00000080: 3243 9e3d 7777 9b3d 9343 f3bb 0ab6 febc
00000090: ac7b 183d 5541 313d 6ae2 633d 39d0 41bd
000000a0: 44f3 abbb b9dc 1f3c ec9a bb3c 29d7 2dbd
000000b0: f5b9 65bd 9307 93bd 5676 c53c 3535 8cbc
000000c0: dc1f a3bc bcec 5a3c 565f 5dbd 2d46 8d3c
000000d0: a34f 903c 54cd 1e3d 7a09 a6bc 8447 3ebd
000000e0: 1483 483d a904 a4bc 83b5 67bb e4dd dfbc
000000f0: 489a 2bbb 93ec 013c 4599 0d3d a887 5e3d
00000100: f119 a43c c9f1 94bd e81e fbbc 5fb5 873d
00000110: f606 6f3d 274c 29bd be34 8d3d 761c 0e3d
00000120: 12be b2bc d74b adba a42e 2c3b 5f53 1dbd
00000130: 6352 bb3c d159 5cbc b549 97bd 6229 473d
00000140: 7f90 9e3c db8e 003c 86ed 1e3d 17de 51bd
00000150: f608 00bd 0629 243c 03f7 4ebd fd4a 7d3d
00000160: 0fcb 8e3d fe04 bd3b 6e96 2e3d 2ea1 3dbc
00000170: 4df9 293d a724 1dbc 5d96 bfbc aa15 7d3c
00000180: 574b ac3c 2aff 293b 5b31 10bc f182 433d
00000190: e5e6 eabb 901b b1bb bbf4 06bd 9f17 403c
000001a0: eb36 973b 82b1 073d d2cc 9bbd d76d 87bd
000001b0: 396f 30bd 5095 1abd af66 74bd 9e4f 05bd
000001c0: c601 a2bd 22a3 fc3c c077 80bd 971e 13bd
000001d0: 6154 83bd b2ba eabc 2e79 8b3d 9c22 bb3c
000001e0: 7c13 10bd 8edb a53c 60a2 ffbc 2318 fc3c
000001f0: 0c3f e7bb 97ed 3dbc 577e 7dbc 8b82 1b3d
00000200: 9e4b 6ebc 1ab7 e8bc 37c6 20bd 891f fdbc
00000210: 8989 12bd d939 5c3c c8b6 21bd 3c98 00bd
00000220: c3d9 c73b b257 e0ba 1bb1 09bd 7cd4 a43c
00000230: 355a af3b 1ae4 ef3c b7cc 6a3d 5668 0dbc
00000240: 4d5a 74bc 907a a9bc 428a 5dbc 1187 3abd
00000250: 31e6 f2bb ac2f 8a3c 44a6 d13b 98ff 0fbd
00000260: 7408 043d e380 28bd 03ad 13bc 9fcf 663d
00000270: f8f5 23bd 9445 1cbc 51e0 81bd 878c a23b
00000280: c391 51bd f237 eebc 272c 9b3d a062 8e3b
00000290: 2800 53bd 91e8 e9bc 0a97 583c aadf c2ba
000002a0: ee3e 043d 1ea5 3bbd 9b5d 263d 41f3 853d
000002b0: b789 773d c83b 22bd 6d12 cdbc 5d15 82bd
000002c0: 9e94 1cbc dc6b 883a 0be6 9fbd 35ad 2c3d
000002d0: bb52 46bd c3fc 9d3b 2fca 47bc 5e02 433d
000002e0: 5f04 383d 867c 7e3d c5e0 093d 474a 92bc
000002f0: 5fab 833c eec8 433d c0aa f6bc 3466 993c
00000300: ea74 293c 3702 cdbc e43c 8abd 8220 903d
00000310: dda1 1c3d 93ab 853d d166 14bc fdac d6bc
00000320: 62d2 893c dd53 203d 6456 95bc 0b39 8cbd
00000330: fda6 55bc dc56 c2bc 4c88 08bb a248 c9bb
00000340: 4301 843c d9fe d43b 148d 703d 1447 903d
00000350: a9ac c43b fc39 b43b 929d 4f3d 1b05 3f3d
00000360: 6db0 f4bb e3eb 09bd e6ca 85bd d063 8dbc
00000370: 9803 b1bc 2be3 7e3b ca01 e13b ae16 a8bc
00000380: 368f e63b ac61 523c 583c ccbc b627 fabb
00000390: 7533 81bd 51cf 9bbb cc63 c33c 2b4b 93bd
000003a0: a6a2 bebb dd24 863d 7b40 e63c d991 3b3d
000003b0: ab83 53bc 11c0 2bbd d9ff 22bb cfef 9fbd
000003c0: 590e 8abd 442f 47bd 5877 1a3d 1d8a 8fbc
000003d0: 11c9 643d 8da0 83bd dc7b 913c 45c4 343c
000003e0: 3908 1abc f32f 533b 7f28 663c 8516 0dbd
000003f0: 2d16 97bd 42ed 44bd cfe9 31bc c64a d4bc
