image_model_weights/epoch_3/classifier_weight.npy (npy, 1664 bytes, 1 tensors)

array f4 [3, 128]
0.028984506 0.034781765 -0.020955283 0.013741734 0.07134489 0.07104556 -0.013319767 -0.0363463
-0.047546096 -0.05132523 0.019264203 0.066495635 -0.04656656 0.028978258 0.09055416 0.052274015
0.051941458 0.067679524 0.02509898 0.0833205 0.02430134 -0.08816829 -0.08897452 -0.026431447
0.06297369 -0.008581936 0.027555559 -0.01117039 0.068284534 0.003888332 0.025099201 0.0210914
0.07008131 0.07305074 -0.04524719 0.06313433 0.08122471 -0.073646635 -0.06527864 0.01321465
-0.04640735 0.000380225 0.08953547 0.073982865 0.014671254 -0.0014439804 -0.043577988 0.09158717
-0.077198274 0.055539213 -0.057880335 -0.03700883 0.018514417 -0.08594007 -0.07402727 -0.06764909
0.045942668 0.08375323 0.08752354 0.050366614 0.06411581 -0.08221811 -0.020167854 -0.055431113
-0.023236087 0.041519623 -0.023923188 0.054432113 0.082657814 -0.014185834 -0.002473021 -0.023339085
0.062561974 0.01140115 0.06891866 0.037292656 -0.016963644 -0.055237442 0.017652499 -0.047186915
-0.08140334 -0.002335289 -0.048685007 0.08195063 -0.08210581 -0.064756215 -0.06564018 -0.008947004
0.06372095 0.0689146 -0.038176365 -0.07094395 0.013376562 0.02346607 -0.032086417 -0.0041757342
-0.08677501 -0.08545508 -0.038515028 0.045232855 -0.060663242 0.028926685 0.031935304 -0.046298455
0.08868756 -0.03052169 0.0059496104 -0.087147966 -0.08496128 0.054812316 -0.05873723 -0.044196326
-0.012411813 0.04552121 -0.04390085 -0.0046639997 -0.037296437 0.05334786 -0.08559039 -0.032910127
0.022440726 -0.035997655 -0.0022592673 -0.012402011 -0.062439166 -0.0041927337 0.002534044 -0.0307371
-0.058589496 0.009448202 0.042759113 0.021074513 -0.086083695 -0.003742475 -0.04713275 -0.06544171
-0.023711443 -0.024888303 -0.07089432 0.0024068987 0.02525912 0.040175147 -0.07919003 0.07959209
-0.009204928 0.053233653 0.015749527 -0.030217653 0.007830984 -0.07554958 -0.008620125 0.06444144
0.010946565 -0.05840949 0.007998602 0.037707664 0.03847845 -0.040009994 0.04884971 0.0217604
-0.024233446 -0.002743195 0.07422751 0.03271798 -0.01695752 -0.020476045 0.077781714 0.068469524
0.07781283 0.086415835 0.06485824 -0.035595126 -0.08073637 -0.02229082 0.08709399 -0.0030688306
0.070985235 -0.071653806 -0.063165 0.052133657 0.06709611 -0.011522156 -0.017228961 0.08538654
-0.03066422 0.06743589 0.06458649 0.051473085 0.017032117 -0.054071087 -0.082651645 -0.0052702944
0.045698017 0.082925454 -0.080667295 -0.043054443 0.05920911 0.04373103 -0.0016319678 -0.038339242
-0.051717512 -0.050437186 -0.063004315 -0.029051656 0.079508856 0.06140162 -0.082318015 0.08646435
-0.091756836 0.01086039 0.019839276 -0.020673934 0.032873668 0.019008907 -0.051722597 0.06705908
-0.006759092 0.048899792 0.03098141 0.028036641 0.017697403 0.014300485 0.09279614 0.073196344
-0.033929303 0.048580047 -0.076958366 -0.048266087 0.016706752 0.042769577 -0.03436487 0.06828274
-0.04023489 0.05018016 -0.011695671 0.079687 0.013637385 -0.051293284 0.012066455 0.0067029325
-0.02712597 -0.016175097 0.05758918 0.038280316 -0.03424856 0.04929897 -0.0017510541 -0.04233989
0.0044590733 0.025440507 0.07254442 -0.07112987 -0.067923166 -0.015022958 -0.075940676 0.075163245
00000000: ea70 ed3c 5377 0e3d 6aaa abbc 0325 613c
00000010: 451d 923d 5680 913d 273b 5abc dcdf 14bd
00000020: b2bf 42bd 683a 52bd f6cf 9d3c dd2e 883d
00000030: 94bc 3ebd d063 ed3c 7674 b93d 471d 563d
00000040: 91c0 543d 909b 8a3d 609c cd3c f0a3 aa3d
00000050: 9b13 c73c 9491 b4bd 4638 b6bd c386 d8bc
00000060: 5af8 803d 409b 0cbc 32bc e13c 0304 37bc
00000070: c3d8 8b3d 63d3 7e3b d79c cd3c dfc7 ac3c
00000080: ca86 8f3d a09b 953d 1e55 39bd 924c 813d
00000090: 2459 a63d 0cd4 96bd cfb0 85bd 4282 583c
000000a0: a215 3ebd f058 c739 5f5e b73d 5484 973d
000000b0: b35f 703c f143 bdba d57e 32bd 0e92 bb3d
000000c0: 211a 9ebd 167d 633d ee13 6dbd 9296 17bd
000000d0: 8cab 973c 5901 b0bd 9c9b 97bd 9b8b 8abd
000000e0: 612e 3c3d d086 ab3d 8b3f b33d 394d 4e3d
000000f0: 264f 833d f861 a8bd 0e37 a5bc bc0b 63bd
00000100: 9b59 bebc 7b10 2a3d 90fa c3bc 35f4 5e3d
00000110: 8048 a93d b36b 68bc 6812 22bb 9c31 bfbc
00000120: 7e20 803d e4cb 3a3c 3a25 8d3d 2fc0 183d
00000130: 57f7 8abc a840 62bd f99b 903c 1147 41bd
00000140: cbb6 a6bd a60b 19bb ee69 47bd bbd5 a73d
00000150: 1727 a8bd e89e 84bd 5c6e 86bd 7496 12bc
00000160: 2180 823d 1923 8d3d d25e 1cbd 104b 91bd
00000170: 5e29 5b3c ea3b c03c 0c6d 03bd 99d4 88bb
00000180: 19b7 b1bd 1303 afbd efc1 1dbd 1646 393d
00000190: 057a 78bd a8f7 ec3c 98ce 023d 73a3 3dbd
000001a0: d3a1 b53d a008 fabc f3f4 c23b a27a b2bd
000001b0: 2e00 aebd e182 603d 7396 70bd 3507 35bd
000001c0: eb5a 4bbc 7374 3a3d 61d1 33bd 77d4 98bb
000001d0: 26c4 18bd 4983 5a3d 044a afbd c5cc 06bd
000001e0: 9dd5 b73c 4772 13bd 3710 14bb ce31 4bbc
000001f0: 36c0 7fbd 3363 89bb 3412 263b 5fcc fbbc
00000200: 8afb 6fbd a2cc 1a3c 2e24 2f3d 75a4 ac3c
00000210: a64c b0bd 5044 75bb 450e 41bd 4e06 86bd
00000220: 803e c2bc 8ee2 cbbc 0b31 91bd 0fbd 1d3b
00000230: 37ec ce3c b28e 243d 622e a2bd 2d01 a33d
00000240: 44d0 16bc 880b 5a3d 2705 813c 038b f7bc
00000250: 874d 003c bdb9 9abd 6d3b 0dbc e0f9 833d
00000260: 3959 333c ca3e 6fbd 920c 033c 5a73 1a3d
00000270: 949b 1d3d 85e1 23bd a216 483d de42 b23c
00000280: 3885 c6bc 2dc7 33bb 9804 983d 4a03 063d
00000290: 7fea 8abc 61bd a7bc 054c 9f3d c039 8c3d
000002a0: 555c 9f3d c9fa b03d 66d4 843d 32cc 11bd
000002b0: 1c59 a5bd 3d9b b6bc 555e b23d 6f1e 49bb
000002c0: b560 913d 3bbf 92bd a75c 81bd 1a8a 553d
000002d0: af69 893d 6dc7 3cbc c023 8dbc 23df ae3d
000002e0: 8833 fbbc d41b 8a3d ec45 843d 71d5 523d
000002f0: f086 8b3c a579 5dbd 4445 a9bd 6fb2 acbb
00000300: d82d 3b3d d2d4 a93d e534 a5bd db59 30bd
00000310: 4085 723d 4f1f 333d c1e7 d5ba 9c09 1dbd
00000320: bed5 53bd 3997 4ebd 6808 81bd bdfd edbc
00000330: 8ad5 a23d 4480 7b3d 5996 a8bd 3914 b13d
00000340: 02eb bbbd c7ef 313c fa85 a23c 625c a9bc
00000350: 8aa6 063d 91b8 9b3c 13db 53bd 4556 893d
00000360: 607b ddbb 264b 483d bacc fd3c 19ad e53c
00000370: 25fa 903c 954c 6a3c e70b be3d f7e7 953d
00000380: 74f9 0abd dffb 463d 599c 9dbd a9b2 45bd
00000390: 99dc 883c 272f 2f3d 2ec2 0cbd d2d7 8b3d
000003a0: 57cd 24bd b689 4d3d 339f 3fbc f032 a33d
000003b0: 576f 5f3c e818 52bd 61b2 453c 46a4 db3b
000003c0: 4837 debc a381 84bc a2e2 6b3d d2cb 1c3d
000003d0: 3848 0cbd b7ed 493d a083 e5ba 986c 2dbd
000003e0: 6b1d 923b 9c68 d03c 2b92 943d 8aac 91bd
000003f0: 4d1b 8bbd da22 76bc c986 9bbd 30ef 993d
