lstm_model_weights_fixed/epoch_7/projector_bias.npy (npy, 640 bytes, 1 tensors)

array f4 [128]
0	0x3cdb7bcc	0.02679243
1	0x39f775a5	0.00047199163
2	0x3d064549	0.03278092
3	0xbd1d1fc0	-0.038360357
4	0xbc215797	-0.009847543
5	0xbb196e81	-0.0023411813
6	0xbd049dd0	-0.032377064
7	0xbc9c701e	-0.01909643
8	0xbccc5f46	-0.024947774
9	0x3c623961	0.0138076255
10	0xbcd7baeb	-0.026334247
11	0xbc825657	-0.01591031
12	0x3d228f27	0.039687302
13	0x3cc0c87a	0.023533095
14	0xbd38189a	-0.044945337
15	0xbd4c5fab	-0.049895924
16	0x3ca30ce2	0.019903604
17	0x3c0f4789	0.008745083
18	0x3c9a077d	0.018802399
19	0x3c5f2080	0.013618588
20	0x3b644d8b	0.0034836258
21	0xbcb9593e	-0.022625562
22	0x3d250b4a	0.04029397
23	0x3cd1adbb	0.025595536
24	0xbccedb83	-0.025251156
25	0xbb105358	-0.0022022333
26	0xbd1c0665	-0.038092036
27	0x3cd28b36	0.025701147
28	0xbd14c499	-0.036320303
29	0x3cf64dd6	0.030066412
30	0xbd45cded	-0.04829209
31	0xbcf4e5d0	-0.02989474
32	0x3d58c9fd	0.052927006
33	0xbd46170e	-0.04836183
34	0x3b8546be	0.004067271
35	0x3ca6623b	0.020310512
36	0xbcf11924	-0.029430933
37	0x3d411be9	0.047145758
38	0xbd3dabfd	-0.0463066
39	0x3d4f6415	0.050632555
40	0xbd4d7610	-0.05016142
41	0xbce2aa03	-0.027668959
42	0xb9e0ffde	-0.00042915245
43	0xbd3d1d21	-0.046170358
44	0x3bc728fd	0.006077884
45	0xbcd7bd64	-0.026335426
46	0x3c40962f	0.011754557
47	0x3c86b0d6	0.016441744
48	0x3ca68ef9	0.020331847
49	0xbd4c254c	-0.049840257
50	0xbb907f62	-0.0044097165
51	0xbd170113	-0.03686626
52	0x3d229eb6	0.03970214
53	0xbcbc667b	-0.022998085
54	0xbcd50d5f	-0.026007352
55	0xbc0bd8e1	-0.008535595
56	0xbbd08bb4	-0.00636431
57	0x3cfbd755	0.030742327
58	0x3bc958c2	0.006144614
59	0xbccdcb3a	-0.02512132
60	0x3cc7ba0b	0.024380704
61	0x3d4e71e5	0.050401587
62	0xbcc6fb80	-0.024289846
63	0x3a6ee047	0.00091123994
64	0xbd01b2fa	-0.031664826
65	0xbc8e417e	-0.017365213
66	0xbcdc3a05	-0.026883135
67	0xbd270c3f	-0.040783163
68	0xbb8e4d02	-0.004342676
69	0xbc8f6e3d	-0.01750862
70	0xbba92df0	-0.005162947
71	0x3d1ad166	0.037797354
72	0x3cad2275	0.021134594
73	0xbcfb6c4f	-0.030691294
74	0x3cda406d	0.026642049
75	0x3c8ba536	0.017046552
76	0x3c97970b	0.01850464
77	0xbd144dcf	-0.036207017
78	0xbccfbc95	-0.025358478
79	0x3d63799a	0.05553589
80	0x3c83dceb	0.016096553
81	0xbd446ffe	-0.047958367
82	0xbc91706f	-0.017753808
83	0xbc84aff4	-0.016197182
84	0xbafaca0a	-0.0019133699
85	0xbb9da890	-0.004811354
86	0x3c9b9c07	0.018995298
87	0xbcd89abc	-0.02644097
88	0xbd4f002c	-0.050537273
89	0xbd04b1b8	-0.03239605
90	0xbd14d5fc	-0.036336884
91	0x3d6bc51a	0.057561018
92	0xbc101aac	-0.008795422
93	0x3d0b1a76	0.033960782
94	0xbd082b2a	-0.03324429
95	0xbcdd0588	-0.026980177
96	0x3d25b84a	0.040458955
97	0x3d1df1fa	0.038560845
98	0xbbc63ddf	-0.006049856
99	0xbc31a33f	-0.010842144
100	0x3bb4374c	0.005499756
101	0x3ca8382a	0.020534594
102	0x3d2dd65b	0.042440753
103	0x3cacaf11	0.021079572
104	0x3d2a9800	0.041648865
105	0xbca12b77	-0.019674046
106	0x3cf71196	0.030159753
107	0xbc3e7914	-0.011625547
108	0x3d597ef1	0.053099576
109	0x3b957699	0.004561257
110	0xbc71a6f7	-0.01474928
111	0x3c74620a	0.014915952
112	0x3d6af205	0.057359714
113	0xbd521f6d	-0.0512995
114	0xbcb295d7	-0.021799965
115	0x3c9de101	0.01927233
116	0x3ccdf381	0.025140526
117	0x3cc1bfc2	0.023651008
118	0xbd19f003	-0.03758241
119	0x3ccbbc82	0.024870161
120	0x3b99f09d	0.004697873
121	0xbcdba1ae	-0.026810493
122	0xbc3f2817	-0.011667273
123	0x3c9977a6	0.01873381
124	0xbc5b39c6	-0.0133804735
125	0xbce5511e	-0.027992781
126	0x3c62244c	0.013802599
127	0xbcf83923	-0.030300682
