lstm_model_weights_fixed/epoch_2/lstm_weight_ih_l0.npy (npy, 57472 bytes, 1 tensors)

array f4 [2048, 7]
000000 5b bc 6f bc ae 64 0d bd 53 42 5e 3d 10 7a a0 bb
       -0.01463231 -0.034519844 0.05426247 -0.0048973635
000010 5c 88 01 3d fc ee dc bc a0 cd a7 bc bd 9c ee 3b
       0.031624183 -0.026969425 -0.020483792 0.0072818683
000020 a6 b9 02 3c 79 8c 0c 3c 8e a4 eb 3c a0 d2 91 bb
       0.007978832 0.008578413 0.02876499 -0.0044501573
000030 31 d5 f9 b9 31 9a fd 3c f7 81 05 bc 2f 31 db 3c
       -0.0004765182 0.030957313 -0.008148662 0.026756851
000040 7b 7e 8e bc 9a 30 1e 3d 08 45 92 bc 0b c4 e7 3c
       -0.017394295 0.03862057 -0.017855182 0.028291723
000050 67 b0 58 3d 60 01 48 bd 8d 58 e0 3c 2d 47 8c 3c
       0.052902605 -0.048829436 0.027385974 0.017123783
000060 f2 bb 1e 3d 51 62 97 3b ce 63 e8 bc c1 57 de 3c
       0.038753457 0.0046198745 -0.028367903 0.027141454
000070 55 18 5d bc 2b 37 4f bd ff d6 61 bd dd a6 7c 3b
       -0.013494571 -0.05058972 -0.055136677 0.0038551607
000080 44 c3 e5 bc 1f 52 d4 3b ff 40 4d 3c f2 bf c0 bc
       -0.028047211 0.006479516 0.012527703 -0.023529027
000090 f1 d0 4b bc 6b 6b bb bc ed 8f 1a 3c c2 76 d0 bb
       -0.012439952 -0.02287837 0.009433729 -0.0063618133
0000a0 fa 13 e6 3c 81 9d 15 bd 16 70 fe bc 0c a9 0b bd
       0.028085697 -0.03652716 -0.031059306 -0.034096763
0000b0 b1 97 95 3c 39 9c f7 bc b2 70 05 3c cb 25 0a bc
       0.018260809 -0.03022586 0.008144544 -0.008431862
0000c0 75 8e 2f 3d b4 e2 23 bb 36 3a 0b 3d 12 7c 50 3d
       0.042860467 -0.0025006952 0.03399106 0.050899573
0000d0 20 f6 c6 bc 56 a3 0f bc 0b 12 43 bd bc 12 d7 bb
       -0.024287283 -0.00876697 -0.04762463 -0.0065635126
0000e0 9c d1 b0 bc 89 81 6b 3d 12 ff bb bc 0b d1 8d bc
       -0.021584325 0.05749658 -0.022948775 -0.017311594
0000f0 15 7b 06 3d 55 fc 3b bd 0a d7 86 bc c1 fb ee bb
       0.032832224 -0.04589494 -0.01645996 -0.007293195
000100 64 8e 1a 3d 6a 2e 52 3d 28 c4 ca 3c ec d7 e8 3b
       0.03773345 0.051313795 0.024751738 0.007105818
000110 01 cc c7 bc 82 f0 25 bc 91 f0 03 bd a6 7e b2 3c
       -0.024389269 -0.010128142 -0.032211844 0.021788906
000120 55 59 43 bc e7 12 12 3d 1f 38 d0 bc 0f 7c b2 bc
       -0.011923154 0.035662558 -0.025417386 -0.021787671
000130 ca 36 d7 bc b5 46 4b bc 30 c3 e8 3c d8 4c 3a bd
       -0.026271243 -0.012406995 0.028413385 -0.04548344
000140 9b d8 37 3d ce b4 12 bd bb 7d 17 bd 1b 48 a6 bc
       0.044884305 -0.03581696 -0.03698514 -0.020298054
000150 7e 0a e7 3c cd 64 11 bd 97 4d 62 bc 47 03 2a bb
       0.028203245 -0.03549652 -0.013812444 -0.0025941895
000160 89 d7 a3 3c 1c a1 00 3d 72 62 bb bc 2b ac e8 3c
       0.020000236 0.031403646 -0.02287409 0.028402409
000170 fe b0 31 bd 43 01 db bc 98 19 ea 3c bc 8e a5 bc
       -0.043381684 -0.026734 0.028576657 -0.020209663
000180 68 39 68 3d a5 05 3d bd 39 12 20 3d f1 f8 e1 bc
       0.056695372 -0.04614796 0.03907988 -0.027584525
000190 95 3a 00 3c 46 6e fc bc 4a e3 cc 3c ee e4 12 3d
       0.007826467 -0.030814301 0.025010724 0.035862856
0001a0 20 e3 33 3c c0 9c 49 bd c3 1c 98 bc 95 6e 1d bd
       0.010979444 -0.049221754 -0.018568402 -0.038435537
0001b0 c0 99 e4 3c b2 b2 8d bc 96 82 18 bc 16 e4 8b 3c
       0.027905345 -0.017297123 -0.009308478 0.017076533
0001c0 ff 4a 04 3d 2e 9d e9 3c 00 04 00 3d 84 34 61 3b
       0.032298084 0.028517332 0.031253815 0.0034363577
0001d0 d4 4b ae 3c 41 7f 26 3b 1f e2 59 bc 38 ef 44 bd
       0.021276392 0.002540544 -0.01329854 -0.0480797
0001e0 f7 59 e6 3c 7d 57 fd 3c 51 82 e9 3b 42 e3 05 3d
       0.02811907 0.030925507 0.0071261306 0.032687433
0001f0 ce 19 55 3c 97 23 fc 3c 5e f7 9c 3c e8 48 a1 3c
       0.013006641 0.03077869 0.019160923 0.019688085
000200 15 53 52 3d 19 92 a1 bb 3a 5d 14 3d 5d f8 d5 3c
       0.051348764 -0.0049307463 0.03622172 0.026119405
000210 2b 80 20 3d 04 93 53 3c f3 27 13 bd 62 0b f2 bc
       0.03918473 0.012913469 -0.03592677 -0.029546443
000220 60 0a b9 3b ff 5d 6f 3c 03 3e a4 bb 75 ba 77 3c
       0.0056469887 0.014609813 -0.005012275 0.015120138
000230 6d 4d 95 bc 9c b2 56 bb 5d fa 0f 3d f9 4d 4d ba
       -0.018225396 -0.0032760268 0.035150874 -0.0007831748
000240 b2 11 4c 3d a5 a2 20 3c 8f 4b 76 bc 30 5d 04 bd
       0.049821563 0.0098044025 -0.015032663 -0.032315433
000250 1d 60 b7 3c f9 96 01 3d ee 4a ed 3b eb 35 70 3d
       0.022384698 0.03163812 0.0072415983 0.05864517
000260 17 68 49 bd db 98 77 3c 8a f9 ef bb 51 59 26 3d
       -0.049171533 0.015112127 -0.0073234485 0.040612523
000270 8f e7 ea bc 21 d1 1b bd 33 f9 2a bd 12 44 bd 3c
       -0.028674869 -0.038041238 -0.04174156 0.023103748
000280 d5 e0 3e bc a7 79 db 3c 65 59 e2 ba 8f 5f a3 3c
       -0.011650284 0.026791407 -0.0017269073 0.019943027
000290 53 ed ab bc b7 15 dd bb 52 1c de 3c bd de ed bb
       -0.020987188 -0.0067469734 0.027113114 -0.0072592185
0002a0 e0 bf 35 3d 3c 75 d2 3c 05 c7 09 3d 2f 84 61 3c
       0.04437244 0.025690667 0.033637065 0.013764425
0002b0 33 91 83 bc 91 a1 06 bd ba 1e 66 bc ee cf 6b bb
       -0.016060447 -0.032868925 -0.014045412 -0.003598209
0002c0 16 f6 d0 3c 99 34 49 bc ba 3b 51 3b 24 0e 06 3d
       0.025507968 -0.012280607 0.003192647 0.03272833
0002d0 37 7a ed bc 47 f4 07 3d 8d 83 28 bc df d5 44 bd
       -0.02898894 0.033191945 -0.01028527 -0.048055526
0002e0 e1 46 81 bc fb 70 c7 3c 78 f1 34 bd 5b 33 1d bc
       -0.015780868 0.024345865 -0.044175595 -0.009594764
0002f0 39 36 5d 3c 9b 8b b9 3c c5 ec ef 3c ea 3e 33 3c
       0.013501697 0.022649577 0.029287705 0.010940293
000300 5b ff f1 bb 57 6e 08 bc d2 8f e7 3c 9e e6 4c 3d
       -0.007385177 -0.008327088 0.028266821 0.05002462
000310 c0 8a 4a bd 3e 1e 5f bc d0 0e 2a bd 8f 16 06 3d
       -0.04944873 -0.01361805 -0.041518033 0.032736357
000320 cb 99 51 bc 2b c4 73 3b 91 4b f8 bb 1f 0e e8 3c
       -0.012793015 0.0037195783 -0.0075773676 0.028327046
000330 36 c9 80 3a 30 fc a3 3c c3 2b 30 3d 86 45 b9 3c
       0.000982559 0.020017713 0.043010484 0.02261616
000340 dd ce 10 bd 31 a0 df bc 89 77 9d bc f0 d9 86 3c
       -0.03535353 -0.027298065 -0.019222038 0.016461343
000350 82 97 ea 3c b2 50 12 bd 21 ee 74 3b f6 ec e2 3b
       0.028636698 -0.03572149 0.0037373381 0.0069252206
000360 79 4a 4f bd ff fd d6 bc c3 20 14 3d bc 5d 13 3c
       -0.050608132 -0.026244162 0.036164057 0.008994516
000370 3a 62 44 3d b2 4a 0c bc e4 79 f3 3c 33 0f 40 bc
       0.04794524 -0.008562731 0.029721208 -0.011722374
000380 46 7c 38 3c b1 1a 5e 3d fc 51 07 bd 40 2b 5c bd
       0.011260098 0.054224674 -0.03303717 -0.053752184
000390 88 5a a3 bb 05 24 4d bd 03 31 77 bc 05 e9 4c bc
       -0.0049851574 -0.05008318 -0.015087369 -0.012506728
0003a0 be 43 1a 3c 4e a0 7b bc 8c 7f c4 bb 1e 3f 1b 3d
       0.009415565 -0.015358044 -0.00599665 0.03790199
0003b0 32 cd 30 bd da 9a 27 3d f8 f6 7c 3c 59 30 34 3d
       -0.04316444 0.040919162 0.015439741 0.04399142
0003c0 74 1f 00 3c 0d d6 ba 3c 49 da 02 bd 37 b1 09 3d
       0.007819999 0.022807145 -0.031946454 0.03361627
0003d0 09 fb 09 bd 55 b6 b3 bc d7 76 a7 bc 4a cc 28 bd
       -0.03368667 -0.021937529 -0.02044241 -0.04121045
0003e0 a9 8a ee 3c e2 78 8e bc 71 1a 0b bd bb 73 de 3c
       0.029118853 -0.017391626 -0.033960763 0.027154794
0003f0 f0 4e 97 bc 04 87 6a 3c e0 68 bd bc a2 66 a8 bc
       -0.018470258 0.014314417 -0.023121297 -0.020556752
