lstm_model_weights_fixed/epoch_2/projector_weight.npy (npy, 262272 bytes, 1 tensors)

array f4 [128, 512]
-0.0467154 -0.0019121508 -0.020398378 -0.0073745754 0.008706754 -0.030102285 -0.0076924725 0.04067741
0.016312683 -0.024388824 0.05330089 0.026888616 0.041179556 -0.0090857 -0.042071965 -0.021318274
-0.05248075 0.029859709 -0.0428195 -0.013271258 -0.02364381 0.030118397 0.04711539 -0.025106298
0.014846357 0.056166075 0.023101492 -0.039025158 -0.015478854 -0.008848413 0.0107250465 0.0050747837
0.055947676 0.045228302 -0.020925738 -0.0069451802 0.020252474 0.023708561 0.037805066 -0.03594659
0.0055259014 0.028909963 0.009057059 -0.023619248 -0.03153071 -0.055521816 0.010019773 -0.03699203
0.003229837 0.0045779026 -0.04097568 0.020592965 0.0032776515 0.025296157 -0.0007701955 -0.020340648
0.02986943 0.008217592 -0.0004529237 -0.017405968 -0.02185478 0.0068419296 0.0103533175 0.042088903
-0.003166388 -0.042025294 -0.036520556 0.049371112 0.03896488 -0.01587959 0.04212421 0.016838782
-0.008765053 0.017745135 -0.009999826 -0.019910935 -0.008923776 -0.025363553 -0.056819662 0.038986992
-0.0073718177 -0.015333552 0.023643374 -0.03279148 0.0019560328 0.011799681 -0.033998284 0.04857697
0.053967144 0.022449749 0.0040593534 0.020884981 0.03112505 -0.03615039 -0.0066465945 -0.010263385
0.011343643 0.01550457 -0.030213667 0.045866445 -0.023717288 -0.025613543 -0.017185565 0.02618256
0.015701985 0.019752305 -0.054585118 -0.050680142 -0.039472703 -0.031441383 -0.027804708 -0.015231552
-0.044971827 0.0042703273 -0.035310365 -0.016229155 -0.03569315 -0.004230458 0.054958962 0.013917891
-0.041313265 0.01061664 -0.006655438 0.03411809 0.014012904 -0.0043358747 0.01730983 0.013935012
-0.014457436 0.0019282328 -0.022012148 -0.0036224248 -0.022012692 0.02845414 -0.00545687 -0.046471123
-0.015799992 0.0075383387 -0.016919892 -0.0075026006 -0.013745491 0.014665571 0.03618416 0.0064750947
-0.017309098 -0.0056216307 -0.021025872 -0.015592489 0.016547844 -0.021800501 0.004649757 -0.025763558
0.008637462 -0.033306696 0.031413067 0.04053329 -0.034894444 0.01622218 -0.049707573 -0.030884732
-0.036589928 -0.023583455 0.056368336 -0.014713068 -0.02542135 -0.01601176 0.0033021634 0.026744753
0.008157996 -0.030807316 0.031259883 0.037747547 0.048667464 -0.025931235 -0.03791549 -0.048928916
0.018523464 -0.01071069 -0.05331221 0.026205644 -0.017451543 0.019015351 -0.029833907 0.025004845
0.017781757 0.04559564 0.021078046 -0.02768346 -0.0033998962 0.018286806 -0.018679366 -0.0069046295
0.025169231 -0.034717754 -0.056180447 0.037787333 0.022110706 0.04302564 -0.010892623 0.005446693
0.001094114 0.020451935 -0.022971146 -0.052440185 -0.025278173 -0.0047292546 0.014731905 -0.017811902
-0.0091121085 -0.016706452 0.040902805 0.050732695 -0.014299883 0.032999255 0.034554712 0.0170806
-0.023725351 -0.029486863 -0.029561527 -0.03720209 -0.0117617715 -0.01254763 -0.00932107 -0.0052587716
-0.017598415 -0.012300928 -0.0037863054 0.0011276033 -0.04058528 -0.025990326 0.0106134 -0.04843137
-0.02404555 0.051849946 0.01201775 0.013203451 -0.019754624 -0.028295735 -0.011433385 -0.049493637
-0.044871934 -0.031571608 0.030727422 -0.0033204155 0.032675322 -0.04245245 -0.008948029 0.0057671783
0.016539598 -0.01949909 -0.018061765 -0.01211061 -0.053910438 -0.016710464 -0.024610449 -0.009251235
00000000: a658 3fbd 22a1 faba 801a a7bc 6ca6 f1bb
00000010: c6a6 0e3c 1199 f6bc 2311 fcbb 5b9d 263d
00000020: 2da2 853c 12cb c7bc 0952 5a3d 8445 dc3c
00000030: e5ab 283d 30dc 14bc a753 2cbd a9a3 aebc
00000040: 0ef6 56bd 599c f43c 8063 2fbd b16f 59bc
00000050: aab0 c1bc dbba f63c 11fc 403d b9ab cdbc
00000060: 223e 733c 660e 663d 573f bd3c d8d8 1fbd
00000070: 059b 7dbc eff8 10bc 1bb8 2f3c 5f4a a63b
00000080: 6429 653d 5041 393d 746c abbc 6594 e3bb
00000090: 84e8 a53c 7538 c23c 7cd9 1a3d bb3c 13bd
000000a0: 9f12 b53b 96d4 ec3c 0f64 143c 277d c1bc
000000b0: 5926 01bd d86a 63bd f929 243c f484 17bd
000000c0: acab 533b 3b02 963b 1dd6 27bd 94b2 a83c
000000d0: decd 563b e339 cf3c f2e6 49ba 6ea1 a6bc
000000e0: bcb0 f43c 14a3 063c 6476 edb9 f696 8ebc
000000f0: cc08 b3bc 4432 e03b f6a0 293c 6a65 2c3d
00000100: 2d83 4fbb b722 2cbd 9496 15bd 5d39 4a3d
00000110: a399 1f3d ea15 82bc 708a 2c3d 7cf1 893c
00000120: 4c9b 0fbc 3f5e 913c 4fd6 23bc 421c a3bc
00000130: 0835 12bc 3ac7 cfbc bcbb 68bd d3b0 1f3d
00000140: 4a8f f1bb 9439 7bbc c0af c13c 5c50 06bd
00000150: c930 003b 7353 413c c941 0bbd a5f8 463d
00000160: a70c 5d3d 89e8 b73c 5304 853b fb16 ab3c
00000170: f6f9 fe3c 6e12 14bd adcb d9bb c227 28bc
00000180: b0da 393c e106 7e3c a782 f7bc 74de 3b3d
00000190: c24a c2bc 7ed3 d1bc bec8 8cbc cf7c d63c
000001a0: 73a1 803c 96cf a13c a594 5fbd fb95 4fbd
000001b0: 21ae 21bd aec8 00bd b3c6 e3bc c28d 79bc
000001c0: 6134 38bd 1aee 8b3b 9aa1 10bd 01f3 84bc
000001d0: fb32 12bd a79f 8abb a61c 613d de07 643c
000001e0: 1938 29bd 6af1 2d3c dc15 dabb 69bf 0b3d
000001f0: 6196 653c f413 8ebb 58cd 8d3c ad4f 643c
00000200: e2de 6cbc c2bc fc3a d252 b4bc 3466 6dbb
00000210: f653 b4bc a818 e93c 8bcf b2bb 8158 3ebd
00000220: fc6e 81bc 2b04 f73b 969b 8abc 60d8 f5bb
00000230: c534 61bc dd47 703c d735 143d 082d d43b
00000240: cfcb 8dbc a835 b8bb 733e acbc a477 7fbc
00000250: 588f 873c f796 b2bc fd5c 983b 190e d3bc
00000260: 2484 0d3c 9a6c 08bd fdaa 003d 3c06 263d
00000270: 7aed 0ebd 61e4 843c 2b9a 4bbd fa01 fdbc
00000280: 52df 15bd 1732 c1bc 7ce2 663d 140f 71bc
00000290: 6f40 d0bc 182b 83bc 1c69 583b d017 db3c
000002a0: 1ea9 053c a05f fcbc 5d0a 003d 2c9d 1a3d
000002b0: 8957 473d be6d d4bc 464d 1bbd b069 48bd
000002c0: 85be 973c e47b 2fbc e75d 5abd 38ad d63c
000002d0: 8af6 8ebc 15c6 9b3c 3d66 f4bc f6d6 cc3c
000002e0: 0cab 913c 7ec2 3a3d deab ac3c 6cc8 e2bc
000002f0: cbd0 5ebb 36ce 953c 7805 99bc 3b40 e2bb
00000300: b42f ce3c 3434 0ebd 781d 66bd e4c6 1a3d
00000310: 8321 b53c a73b 303d f976 32bc 2c7a b23b
00000320: 6068 8f3a d18a a73c fc2d bcbc 85cb 56bd
00000330: 2c14 cfbc ddf7 9abb 175e 713c 44ea 91bc
00000340: f44a 15bc f8db 88bc b389 273d 16cd 4f3d
00000350: 0e4a 6abc 3a2a 073d 3e89 0d3d 9dec 8b3c
00000360: ab5b c2bc 6f8e f1bc 042b f2bc 3861 18bd
00000370: 72b4 40bc 9394 4dbc 67b7 18bc c651 acbb
00000380: 8d2a 90bc d589 49bc aa23 78bb 17cc 933a
00000390: c03c 26bd aae9 d4bc d3e3 2d3c f95f 46bd
000003a0: 2cfb c4bc 9c60 543d 19e6 443c 4a53 583c
000003b0: 73d4 a1bc 75cc e7bc 1853 3bbc d7b9 4abd
000003c0: a2cb 37bd 3b51 01bd 13b8 fb3c 549b 59bb
000003d0: 8fd6 053d 9fe2 2dbd c19a 12bc 99fa bc3b
000003e0: 0d7e 873c 8ebc 9fbc 44f6 93bc 946b 46bc
000003f0: 31d1 5cbd 62e4 88bc da9b c9bc 7e92 17bc
