lstm_model_weights_fixed/epoch_6/projector_weight.npy (npy, 262272 bytes, 1 tensors)

array f4 [128, 512]
000000 63 29 14 bd 00 17 bf bc 51 fb 16 bd 95 87 e2 bc
       -0.036172282 -0.023326397 -0.036860768 -0.027652541
000010 21 cd 15 bc 8d a6 48 bd ed 2d a3 3b 30 1d d2 3c
       -0.009143145 -0.04898696 0.00497984 0.025648683
000020 48 d7 c6 3a d3 05 27 bd 12 af 88 3d cc 75 b9 3c
       0.001517036 -0.04077704 0.06674017 0.022639178
000030 0f d6 01 3d b9 65 d7 bc a9 ad 6d bd 35 d6 22 bd
       0.031698283 -0.026293622 -0.058026943 -0.039755065
000040 b8 8f 9c bd 9b 87 22 3c 5c 57 42 bd 86 65 cf bb
       -0.076446 0.009920026 -0.047446594 -0.006329241
000050 2e 00 10 bd 3d b8 38 3d 88 fb 73 3d 1a cf 55 bc
       -0.03515642 0.04509758 0.05956605 -0.013049865
000060 67 78 d9 3c 27 d9 95 3d 79 66 1a 3d 1b 0e 03 bd
       0.02654667 0.07316809 0.03769538 -0.031995874
000070 c0 60 bd bc db bf 85 bc 09 45 d2 3c d5 41 d9 3c
       -0.023117423 -0.016326835 0.025667684 0.026520649
000080 2b 72 93 3d 76 75 8a 3d 2a b0 20 bc bc e3 cf bc
       0.0719951 0.06760685 -0.009807626 -0.025377147
000090 f5 ca 0c 3d c1 4d 22 3d 22 b1 50 3d 13 ac 3b bd
       0.034373242 0.039624933 0.050950177 -0.0458184
0000a0 c1 51 9d bb 2d 3e 74 3c 14 ce 96 3c cb 26 19 bd
       -0.0048010056 0.014907402 0.018408813 -0.03739051
0000b0 0e e3 4c bd 16 1a 89 bd 6a 4a b5 3c 06 6d 9f bc
       -0.050021224 -0.066944286 0.02213021 -0.019461166
0000c0 01 84 68 bc d3 06 47 3c 14 01 47 bd 64 fa 59 3c
       -0.014191628 0.012147623 -0.048585013 0.013304327
0000d0 86 05 6c 3c c3 57 14 3d aa 29 be bb 76 e4 1b bd
       0.014405614 0.03621651 -0.0058033066 -0.038059674
0000e0 64 d4 3f 3d ad 63 49 bc c6 c5 44 3b c3 d9 e3 bc
       0.04683341 -0.012291831 0.0030025109 -0.027813798
0000f0 2f c1 df bb 08 41 d6 3b 67 d4 e9 3c 52 6a 58 3d
       -0.006828449 0.006538514 0.028543664 0.05283577
000100 d8 6d 6b 3c 6c e5 80 bd f7 89 fc bc f0 91 81 3d
       0.0143694505 -0.06293759 -0.030827506 0.063266635
000110 85 9a 5e 3d 9a 98 d4 bc 1f e8 7e 3d 1e 8b 00 3d
       0.05434658 -0.025951672 0.062233087 0.031382672
000120 41 fd ae bc 8e b4 af 3b 5c 64 ab 3a 15 a5 0a bd
       -0.021360995 0.0053621 0.0013076174 -0.03384884
000130 d8 5c 08 3c 75 5f 68 bc 58 03 90 bd 67 c8 46 3d
       0.008322917 -0.014182915 -0.07031888 0.048530962
000140 f1 db 05 3c f7 1f 90 ba f5 8a 00 3d 34 f3 41 bd
       0.008170114 -0.0010995854 0.03138252 -0.047351077
000150 44 4d af bc 00 7b 37 3c ea a9 33 bd 57 e2 74 3d
       -0.021399148 0.011198759 -0.043863215 0.059786167
000160 b5 9a 87 3d 47 d8 0f 3c 5c 94 f1 3c 8e f6 c8 ba
       0.06621305 0.008779592 0.029489689 -0.0015332268
000170 d2 fc 15 3d bd f8 91 bc 74 b2 ab bc b6 73 26 3c
       0.03661806 -0.017818803 -0.020959117 0.010159424
000180 fb 61 9f 3c f2 75 8d 3b ed 0f 7d bc 1f 36 4f 3d
       0.0194559 0.0043170387 -0.0154456915 0.050588723
000190 f1 5c 1d bc 98 97 32 bc 54 d9 f8 bc fc c5 68 3c
       -0.0096046785 -0.010900401 -0.030377068 0.014207359
0001a0 ea 0b c3 3b 8d 4d 06 3d 68 fa 8b bd 78 31 82 bd
       0.005952348 0.032788802 -0.068348706 -0.06357092
0001b0 d7 b6 27 bd 7b f6 21 bd cd 73 3f bd 4b 8b e5 bc
       -0.040945854 -0.039541703 -0.046741296 -0.028020522
0001c0 fe 74 81 bd 9a df c4 3c c7 06 5f bd bc 56 02 bd
       -0.063211426 0.024032403 -0.054449823 -0.031820998
0001d0 ed 3e 51 bd 1f 3c af bc 2a 74 88 3d 51 f0 86 3c
       -0.0510854 -0.021390973 0.066627815 0.016472014
0001e0 d2 bf 14 bd a0 01 a4 3c 40 bb c8 bc 94 fd 1d 3d
       -0.036315747 0.020020306 -0.02450335 0.03857191
0001f0 60 e3 5b bb f1 91 4f bc c2 9e aa bb 22 1e 02 3d
       -0.0033552274 -0.0126690725 -0.0052069137 0.03176702
000200 61 d6 68 bc d1 4d 9b bc 18 3b 0e bd 25 93 c1 bc
       -0.014211268 -0.018958004 -0.034724325 -0.023629734
000210 3d 93 8c bc 6e aa 88 3c 61 e8 f0 bc f1 a6 0f bd
       -0.017160052 0.01668283 -0.029407682 -0.035071317
000220 74 7f 03 39 84 88 45 3a 69 6a 02 bd 28 27 a6 3b
       0.00012540614 0.0007535296 -0.031839762 0.0050705858
000230 4e e6 a2 3a 66 7c c0 3c 1a 37 57 3d 15 5b c8 bb
       0.0012428255 0.023496818 0.052542783 -0.0061143734
000240 64 0e 40 bc 6a 49 8e bc 55 fa c1 bc 1a 47 14 bd
       -0.011722181 -0.01736899 -0.023678938 -0.03620062
000250 d1 6c 27 bb 2e c7 05 3b 9d 01 e9 3a 6a dd 11 bd
       -0.0025547037 0.002041291 0.001777697 -0.035611548
000260 d9 a7 d5 3c ab 0d 2a bd 65 b7 95 3b 6c 28 5b 3d
       0.026081013 -0.04151694 0.0045689815 0.053505346
000270 21 c3 2f bd 36 f0 3b 3c 4d 87 77 bd 4e a9 d5 bb
       -0.0429107 0.011470845 -0.060431767 -0.006520427
000280 7c 3b 44 bd f7 cc ca bc 15 22 93 3d f4 08 cf bb
       -0.04790829 -0.024755938 0.07184235 -0.006318206
000290 68 24 28 bd 39 51 e3 bc 6c f1 50 3c f7 6c f3 3b
       -0.041050345 -0.02774869 0.012752872 0.007428761
0002a0 9c 56 e2 3c c3 31 2e bd eb d8 09 3d 14 00 6c 3d
       0.02762919 -0.042527925 0.033654135 0.057617262
0002b0 90 f0 72 3d a1 b6 0c bd 41 5c ee bc 6b 33 7a bd
       0.05931145 -0.034353856 -0.029096724 -0.061084192
0002c0 e9 37 4a 3b 79 a1 06 3a 21 5b 91 bd d5 aa 1e 3d
       0.003085608 0.00051357556 -0.070974596 0.038737137
0002d0 f1 fd 13 bd b8 48 23 3c f5 ea a9 bc f5 c0 2c 3d
       -0.03613085 0.009966068 -0.020741919 0.042176206
0002e0 b0 ef 19 3d c9 4e 70 3d 80 1c 05 3d b3 1b 79 bc
       0.0375821 0.058668885 0.032497883 -0.015204358
0002f0 b3 c0 40 3c fe 9d 1f 3d 92 a9 97 bc 35 ac 3b 3c
       0.011764693 0.038969032 -0.018513475 0.011454632
000300 42 20 5b 3c d9 c2 af bc 5b 91 8b bd 51 29 6f 3d
       0.01337439 -0.021455215 -0.06814834 0.05838901
000310 85 73 12 3d 10 75 7c 3d 1f 3b bc ba b6 5c 17 bc
       0.0357547 0.061635077 -0.0014360881 -0.009238413
000320 56 11 5e 3c 67 c8 0f 3d c2 79 7f bc 5e 78 83 bd
       0.013553938 0.035103228 -0.015592994 -0.064194426
000330 80 16 73 bc c7 ae 9c bc 5a 38 c9 3a 89 0e d0 bb
       -0.014836907 -0.01912631 0.0015351877 -0.006349389
000340 64 fc 1a 3c d6 9a 09 b8 6e e4 61 3d 51 a1 85 3d
       0.009459589 -3.2807548e-05 0.05514949 0.06524909
000350 93 e6 f5 3a 51 54 52 3c 23 92 4d 3d 14 c8 1c 3d
       0.0018760733 0.012837485 0.050188195 0.038276747
000360 97 c1 3e bc 02 3b 17 bd 42 7e 51 bd 58 c3 a4 bc
       -0.011642835 -0.03692151 -0.0511458 -0.020112678
000370 0f 1d b1 bc 42 0e a2 39 ab cd 6e 3b 13 cb 91 bc
       -0.021620302 0.0003090967 0.0036438506 -0.017797029
000380 87 c8 40 38 0b 58 9a 3b 02 f9 a3 bc fa 92 12 bc
       4.5963123e-05 0.0047102026 -0.020016197 -0.008946175
000390 b2 7a 67 bd b0 cb 25 bc 9d 90 a2 3c 20 d6 85 bd
       -0.056513496 -0.010119364 0.019844348 -0.06534982
0003a0 d2 01 18 bc f0 cf 81 3d c0 9d d0 3c 25 c1 0d 3d
       -0.009277778 0.06338489 0.025465846 0.034608025
0003b0 99 77 27 bc cc 57 1d bd 7a 68 aa ba 9d 46 83 bd
       -0.010221385 -0.038413808 -0.0013001107 -0.06409953
0003c0 ea 56 80 bd 37 83 38 bd bd d5 1e 3d 3d ee 80 bc
       -0.062665775 -0.04504701 0.038778055 -0.0157386
0003d0 7c e4 50 3d 15 2d 75 bd 8e 6f 2e 3c ab e3 7d 3c
       0.05099915 -0.059857447 0.010646714 0.015496175
0003e0 43 f5 56 bb ac 9c 89 bb ee 76 9e 3b 3a 23 ef bc
       -0.0032799996 -0.004199585 0.004835955 -0.029191602
0003f0 ac 01 8e bd 16 d8 1f bd ca 9d 51 bc 2d c1 bb bc
       -0.06933913 -0.039024435 -0.0127939675 -0.022919262
