lstm_model_weights_fixed/epoch_6/projector_bias.npy (npy, 640 bytes, 1 tensors)

array f4 [128]
0	0x3cd7c23e	0.02633774
1	0x39a092ee	0.0003062705
2	0x3d0956be	0.03352999
3	0xbd20b1d6	-0.039232098
4	0xbc16353c	-0.0091679655
5	0xbadd2dec	-0.0016874648
6	0xbd070f3b	-0.03297351
7	0xbca057f2	-0.019573186
8	0xbcd274cb	-0.025690457
9	0x3c6bdac2	0.014395418
10	0xbcdaa7b6	-0.026691299
11	0xbc84fcf6	-0.016233902
12	0x3d24eb86	0.040263675
13	0x3cc424d6	0.023943346
14	0xbd3a6d5e	-0.045514457
15	0xbd4d8eae	-0.050184898
16	0x3ca6b8d9	0.020351814
17	0x3c1422f6	0.009041538
18	0x3c9d06d7	0.0191683
19	0x3c6ac708	0.014329679
20	0x3b7d0271	0.0038606192
21	0xbcb61247	-0.022225512
22	0x3d265a2c	0.04061334
23	0x3cd6e849	0.02623381
24	0xbcd29ddb	-0.025710037
25	0xbb3e7afc	-0.0029065004
26	0xbd1f1273	-0.038835954
27	0x3cd4c2f6	0.02597187
28	0xbd166fae	-0.0367276
29	0x3cf7757e	0.030207392
30	0xbd489ba1	-0.048976544
31	0xbcf890ff	-0.030342577
32	0x3d5a5fb3	0.053313922
33	0xbd481948	-0.048852235
34	0x3b963bb5	0.0045847544
35	0x3cac79e3	0.021054214
36	0xbcfabbb5	-0.030607084
37	0x3d40a1f4	0.04702945
38	0xbd40bc54	-0.047054604
39	0x3d514078	0.051086873
40	0xbd4f9bbf	-0.05068564
41	0xbce91337	-0.028451545
42	0xba3b5ac7	-0.0007147011
43	0xbd3fd63f	-0.04683518
44	0x3bd3e1c4	0.0064661223
45	0xbcd53cfb	-0.026030054
46	0x3c32d5a8	0.010915197
47	0x3c80887c	0.01569008
48	0x3ca9d266	0.020730209
49	0xbd4f5682	-0.05061961
50	0xbb93bccf	-0.0045085917
51	0xbd196a63	-0.037454974
52	0x3d2564cc	0.04037933
53	0xbcc4d4ab	-0.02402719
54	0xbcda1953	-0.026623404
55	0xbc019bbd	-0.007910666
56	0xbbb60321	-0.005554572
57	0x3cfc4955	0.030796686
58	0x3bbcc407	0.005760673
59	0xbcd1d2c3	-0.025613194
60	0x3cc400b1	0.023926111
61	0x3d4fe0d7	0.050751533
62	0xbcc999cd	-0.02460947
63	0x3ab669fb	0.0013917083
64	0xbd041ed7	-0.032255974
65	0xbc925c1f	-0.017866192
66	0xbce16d6c	-0.027517997
67	0xbd28c66e	-0.041204862
68	0xbba88cd5	-0.0051437416
69	0xbc94b927	-0.018154694
70	0xbb98ee2f	-0.0046670656
71	0x3d1e1c75	0.038601357
72	0x3cae8673	0.021304345
73	0xbd0082ea	-0.03137485
74	0x3cded179	0.027199494
75	0x3c92c9f8	0.017918572
76	0x3c9d5b91	0.019208701
77	0xbd12f2dc	-0.03587614
78	0xbccad245	-0.024758467
79	0x3d66402d	0.056213547
80	0x3c7d6181	0.015465141
81	0xbd465d9b	-0.048429113
82	0xbc8e5969	-0.017376618
83	0xbc8b0b45	-0.016973147
84	0xbb00b38a	-0.0019638264
85	0xbb8694b3	-0.004107082
86	0x3c95a58a	0.018267412
87	0xbcdee81d	-0.02721029
88	0xbd5090d2	-0.05091936
89	0xbd04ce2b	-0.03242318
90	0xbd172a5e	-0.03690564
91	0x3d6e29fc	0.05814551
92	0xbc0b36e1	-0.008496971
93	0x3d0d1b36	0.03444978
94	0xbd0a0eb2	-0.03370542
95	0xbcd9f7cd	-0.026607418
96	0x3d27b6eb	0.04094593
97	0x3d20d5c8	0.039266378
98	0xbba7d7da	-0.005122167
99	0xbc286383	-0.010277632
100	0x3bbf81e4	0.0058443416
101	0x3cac8d6b	0.021063527
102	0x3d2efcb9	0.042721484
103	0x3ca69bf0	0.020338029
104	0x3d2ba614	0.04190643
105	0xbca59522	-0.020212714
106	0x3cf0d8fa	0.029400337
107	0xbc4fd96a	-0.012686113
108	0x3d5acad0	0.053416073
109	0x3b81f3f7	0.0039658505
110	0xbc64b849	-0.013959953
111	0x3c7ec43c	0.015549716
112	0x3d6c9a3c	0.057764277
113	0xbd534e40	-0.051588297
114	0xbcb73179	-0.022362458
115	0x3c9b8879	0.018985974
116	0x3cd37151	0.02581087
117	0x3cbb2d88	0.02284886
118	0xbd1bbf80	-0.038024426
119	0x3cc5fdd9	0.024168896
120	0x3b8829b6	0.004155363
121	0xbcd23664	-0.025660701
122	0xbc43df09	-0.011955031
123	0x3c9f4ebf	0.019446729
124	0xbc66280f	-0.014047637
125	0xbcee57bc	-0.02909457
126	0x3c5da381	0.013527752
127	0xbcf6ca75	-0.030125836
