lstm_model_weights_fixed/epoch_5/lstm_weight_ih_l0.npy (npy, 57472 bytes, 1 tensors)

array f4 [2048, 7]
00000000: 6341 e5bc 4a60 1ebd d48c 9d3d c4d3 ac3c
00000010: 102d 273d 3a4f 17bd 4c7b 7b3b 0b9f 9fbc
00000020: b5ff a23b 904b c93c 405a 5e3d 30f2 293c
00000030: 8c53 06bc 9667 4a3d 7481 b4bc dcbf 903c
00000040: 5316 ed39 aa61 773d c01c a0bc 3682 253c
00000050: 8dd4 9c3d 1a8e 86bd 4ad3 2d3c 6489 5f3c
00000060: 4372 803d c797 b43c adee 84bc 2cf7 503d
00000070: 23fd 75ba f93e 88bd 1e40 90bd 303c cbbb
00000080: 0183 c7bc 5175 c13c baf6 bb3a 595a 9abb
00000090: 6242 1f3b 8994 2cbd f32c 69bc 65c4 a53a
000000a0: 1e48 a33c a4b7 92bc f5fb 55bc b384 48bc
000000b0: 9d54 0f3d 1887 48bd 8c04 f23c ea53 debc
000000c0: 6835 853d 9010 8f3a 8f47 fc3c 3779 8c3d
000000d0: 5f59 b9ba a888 b8bb 87c7 36bd 35e5 28bc
000000e0: fcae 95bb 10eb 953d 7780 51bc df7a 24bd
000000f0: a7e0 323d df77 7fbd 5e2e 6abc fa99 14bd
00000100: b5e7 203d baca 7b3d 723b 233d 2fa0 a33c
00000110: b3f6 20bd d498 fdb9 b4a8 69bc 1173 253d
00000120: e7c5 2cbb 9597 4a3c aadb 4abc 675e 21bd
00000130: 8953 9dbc 40c0 25bd 698e 013c a725 81bd
00000140: c76d 4c3d 8d67 45bd 91d1 75bd 4353 1b3b
00000150: 3e23 923c 965e 3dbd 176b 973b 56a9 9e3c
00000160: 3b18 9f3c 3506 b33c af51 81ba 99af 283c
00000170: 8c4e 8bbd 0073 4abd 00e9 523d cce9 2ebd
00000180: 36d8 9b3d 65c8 3abd 441a fd3c 58a9 f7bc
00000190: 9644 a93c 13c8 14bc ced5 2b3d b1c1 503d
000001a0: 7b87 cf3c 4b8c 83bd 6df3 05bd f936 16bd
000001b0: cf86 4b3d bbe0 e7bc 110c ebbc 887d 133d
000001c0: 3554 8b3c c8f3 0a3d 68ff 583c fd71 dbbc
000001d0: 7c86 bf3c 4a42 6b3c 4d42 f9bc bdd4 9ebd
000001e0: 2c23 0c3d 1e0e 293d 37de a93b 0c2d 453d
000001f0: dad9 a3bb 5fbc 013d 9ef1 a4ba 097c 843b
00000200: aae4 903d ec0a ac3c 7997 4d3d e992 733c
00000210: bb2f 7e3d 322f ce3c f653 03bd fbec 12bd
00000220: 4162 37bc c4f7 0d3d f623 163c a5ad a23c
00000230: ddfd 7abc 5d95 8bba 920d 243d 7c66 c5bb
00000240: 18be 8a3d 7c29 b53c 7a33 653b b47a 74bd
00000250: 275c 2a3d b123 4e3d 2fd7 86bb 75e6 a03d
00000260: 68d5 8abd a59e 0a3d fc76 533c f0db 353d
00000270: 3aec 34bd b5ed 7abd d309 d4bc 9e33 1c3d
00000280: 52b3 59bc 4dd5 2f3d f7ac df3b 3110 be3c
00000290: c37e 01bd 91c1 a8bb 0a18 383d 556d aabc
000002a0: 4fac 7e3d 6665 0f3d b537 d83c a085 fdbb
000002b0: 5327 903b 51b5 d8bc 3969 87bc d796 ad3a
000002c0: aa72 2e3d 4996 e9ba 1c66 bbbc 8d80 5a3d
000002d0: dc37 49bd 6a95 dd3c 682f 99bc 8506 83bd
000002e0: 861b 8abc adac 493d 67a7 66bd 110e ddbc
000002f0: 430f 273d 3ccf 543a 9ad0 4a3c f776 dd3c
00000300: 094f 883c 6445 9fb8 c8d5 cc3c 5480 923d
00000310: c80a 83bd 8fd3 e7bc 616f 40bd 6426 5e3d
00000320: 2a12 eabc e760 34bc eae1 ad3b fd2f f03b
00000330: 2e09 2cbc 4ce8 0a3d 4084 853d db97 0c3d
00000340: 1bb0 4abd 834b 05bc bfcb 3dbb ad7d a33c
00000350: 1ed0 8a3c cbba 5dbd 8f32 b23c 60e4 be3c
00000360: da8b 17bd 9bbd 37bd 8829 533d 0ace 9c3c
00000370: 6e18 d63c b7ee aa3b 6095 353c 52d4 e9bc
00000380: 4ffd bb3c a852 873d c836 06bd a23c 92bd
00000390: 66ce 2e3b 2adb 77bd 2382 6cbb 7515 c9bc
000003a0: 0d63 c6bb f870 1b3b 612d a13c 3fff 473d
000003b0: 34bd 7fbd 4fe7 863d b38d e03b 4e98 2b3d
000003c0: ae7d b33c c04e 393d d636 a3bc 4ead 053d
000003d0: 1fb4 abbc 66a9 1cbd 17e4 0dbd f05e 44bd
000003e0: b3e5 3f3d 5afb a9bc 3c88 10bd 31e3 453d
000003f0: fef3 663a 3dc2 c03b 0a82 1dbd d40d 23bd
-0.02798528 -0.038666047 0.076928765 0.021097071 0.04081446 -0.03694079 0.0038373051 -0.019485017
0.0049743303 0.024572164 0.054285288 0.010372683 -0.00819863 0.049415193 -0.022034384 0.01766961
0.00045220795 0.060395874 -0.019544959 0.0101018455 0.07657728 -0.065700725 0.010609457 0.013643596
0.06271794 0.02204503 -0.01622709 0.05101697 -0.00093837286 -0.06652636 -0.070434794 -0.0062022433
-0.02435446 0.023615511 0.0014340498 -0.0047104773 0.0024301042 -0.04213384 -0.014231908 0.0012647031
0.01993185 -0.017909832 -0.0130605595 -0.012238669 0.034992803 -0.04895696 0.029543184 -0.027139623
0.06504327 0.001091497 0.03079584 0.068590574 -0.0014141015 -0.005631525 -0.044623878 -0.010308553
-0.004567979 0.07320225 -0.012786976 -0.04015624 0.043671276 -0.062370177 -0.014293281 -0.036279656
0.039283473 0.061472632 0.039851613 0.019973842 -0.03929777 -0.00048369786 -0.014261413 0.04039294
-0.0026363076 0.012365242 -0.012381474 -0.03939667 -0.019204872 -0.040466547 0.007907488 -0.0630601
0.04990938 -0.048194457 -0.06001431 0.002370075 0.01783907 -0.046232782 0.0046209204 0.019367855
0.019420734 0.021853546 -0.0009866263 0.010295772 -0.06802091 -0.04942608 0.051491737 -0.042703435
0.07609598 -0.045601267 0.030896313 -0.030232117 0.020662587 -0.009080905 0.041951947 0.05096597
0.025333157 -0.06423243 -0.032702852 -0.03667352 0.04968911 -0.028305402 -0.028692277 0.036008388
0.017007926 0.033923894 0.013244487 -0.026787752 0.023379557 0.014359066 -0.030427122 -0.0775542
0.03421323 0.04127323 0.005183961 0.048138663 -0.005000335 0.031673785 -0.0012584215 0.0040431065
0.07074864 0.021001302 0.050193284 0.014866569 0.062057238 0.025168989 -0.032062493 -0.035870533
-0.011192859 0.034660116 0.009163847 0.01985819 -0.015319315 -0.0010649372 0.040052004 -0.00602418
0.06774539 0.022114508 0.003497331 -0.05968733 0.04159179 0.050327007 -0.0041150074 0.07856456
-0.06778985 0.0338427 0.012906786 0.044399202 -0.044170596 -0.06126185 -0.02588359 0.038135163
-0.013287382 0.04292803 0.006826039 0.02320108 -0.03161503 -0.005150028 0.0449448 -0.020804087
0.062176045 0.03500881 0.02639375 -0.0077368766 0.004399219 -0.026453646 -0.016529666 0.0013243806
0.04258982 -0.0017821278 -0.022875838 0.05334525 -0.049125537 0.027048785 -0.018699363 -0.06397728
-0.016858827 0.049236942 -0.05631199 -0.026984246 0.04078604 0.00081180385 0.012378836 0.027034266
0.01663925 -7.594636e-05 0.025004283 0.07153383 -0.06398541 -0.028299121 -0.04698122 0.05423583
-0.028573114 -0.011009431 0.005306472 0.0073299394 -0.0105002355 0.03391294 0.06519365 0.03432451
-0.049484354 -0.008135679 -0.0028960553 0.019957388 0.016944941 -0.054133218 0.021752624 0.023302257
-0.036998607 -0.044858556 0.05155328 0.019141216 0.026134696 0.0052164453 0.011082977 -0.028543625
0.022947935 0.06607562 -0.032767087 -0.07140471 0.0026673316 -0.060511746 -0.003608831 -0.024546364
-0.0060542882 0.0023718458 0.019674959 0.048827406 -0.062436298 0.06587087 0.0068528294 0.041893296
0.021910515 0.045241117 -0.019923609 0.03263598 -0.020959912 -0.03824749 -0.03464135 -0.047942102
0.046849918 -0.020749737 -0.035286173 0.04831237 0.00088101614 0.00588253 -0.038454093 -0.03980811
