lstm_model_weights_fixed/epoch_5/projector_weight.npy (npy, 262272 bytes, 1 tensors)

array f4 [128, 512]
-0.039343238 -0.017396726 -0.033448767 -0.024268303 -0.0065032477 -0.046150032 0.0032969948 0.029683568
0.0033868442 -0.03710166 0.0649806 0.02039994 0.03453273 -0.022863148 -0.056261018 -0.03664648
-0.072099715 0.014510706 -0.046890244 -0.005849348 -0.034407035 0.042317532 0.058333438 -0.014431941
0.026125569 0.07025649 0.034737635 -0.03012307 -0.021723518 -0.017457388 0.023986433 0.02156949
0.06978149 0.063454986 -0.011001184 -0.02269541 0.033090707 0.037802182 0.048050154 -0.04525972
-0.0045493124 0.016708463 0.015536897 -0.035952512 -0.04742007 -0.065398216 0.020741314 -0.020925304
-0.011791173 0.011856693 -0.04754942 0.012029841 0.013116778 0.0353107 -0.0012872709 -0.033979513
0.04514364 -0.009012245 0.005076503 -0.027677158 -0.008576527 0.0072002197 0.026066903 0.052274812
0.012112083 -0.05938454 -0.032566145 0.061930247 0.052546337 -0.02145816 0.058983237 0.029813975
-0.020706048 0.007108972 0.00057223777 -0.032109626 0.0039882027 -0.014990742 -0.06891544 0.048430692
0.00517345 -0.0038196177 0.02931373 -0.04551406 -0.017203236 0.012455894 -0.04078228 0.05890083
0.06474473 0.01046937 0.024635063 0.0026274736 0.03566363 -0.021291899 -0.019742152 0.007958711
0.01803071 0.005430786 -0.018131452 0.051815 -0.01088668 -0.012681173 -0.029052775 0.015139891
0.0065260497 0.03187708 -0.06586257 -0.06210114 -0.04106143 -0.04000994 -0.041965555 -0.02636862
-0.0589571 0.0208554 -0.051412366 -0.029861994 -0.047644712 -0.018751344 0.06585992 0.015969
-0.037958607 0.018940575 -0.021761216 0.041042596 -0.001692379 -0.013110331 -0.0011509291 0.028778639
-0.0131097315 -0.015090732 -0.032942064 -0.020478446 -0.015514802 0.017966313 -0.025027366 -0.037068956
-0.0023482663 0.0010644643 -0.03091253 0.0008498489 -0.00041250893 0.02190022 0.05058493 -0.004884542
-0.010662387 -0.016210876 -0.02486671 -0.03252464 0.000104810446 -0.003441307 0.0014355408 -0.035452284
0.023464216 -0.0417098 0.009711368 0.05211354 -0.043905687 0.017657664 -0.059264436 -0.01116043
-0.04665112 -0.024740733 0.06990697 -0.01051409 -0.03801974 -0.027253691 0.012350492 0.011450669
0.025143282 -0.041380063 0.0317864 0.054558467 0.058448486 -0.031811245 -0.031559493 -0.060072836
0.007887537 2.8281615e-05 -0.068036065 0.037354123 -0.031478066 0.011709718 -0.023364978 0.039009195
0.03415085 0.057097435 0.032127034 -0.015061953 0.009754202 0.035639584 -0.015443191 0.008542582
0.014578878 -0.021700937 -0.06783702 0.053686205 0.034446824 0.059443254 -0.00025645376 -0.0030563665
0.012407588 0.032458078 -0.014742319 -0.06303174 -0.015849147 -0.017561983 0.0029656321 -0.0065286504
0.006449571 -0.0026904372 0.05361867 0.06324596 3.6056786e-05 0.016878726 0.04956426 0.035040278
-0.013211113 -0.037819557 -0.046513006 -0.022287713 -0.02136638 -0.0010622249 0.0022760595 -0.016443001
-0.002451552 0.0019241702 -0.017900089 -0.00913843 -0.053964593 -0.012669702 0.017223122 -0.062769175
-0.010716471 0.062367324 0.024186483 0.03033929 -0.010911926 -0.03615085 -0.0014328752 -0.05984989
-0.0602382 -0.043469973 0.038867034 -0.01485425 0.04852163 -0.057969213 0.007645936 0.016174203
-0.0005317829 -0.006873444 0.0012210201 -0.027065087 -0.067430556 -0.035831288 -0.013455328 -0.021548327
00000000: 6026 21bd 9483 8ebc 9301 09bd 52ce c6bc
00000010: 3219 d5bb d107 3dbd 6512 583b f42a f33c
00000020: d1f5 5d3b e9f7 17bd 8c14 853d c61d a73c
00000030: 3172 0d3d 7f4b bbbc f471 66bd 9f1a 16bd
00000040: 04a9 93bd 50be 6d3c fc0f 40bd e3ab bfbb
00000050: 64ee 0cbd 2655 2d3d 0bef 6e3d f373 6cbc
00000060: 4a05 d63c a2e2 8f3d 0d49 0e3d a8c4 f6bc
00000070: 85f5 b1bc cc02 8fbc 327f c43c 80b2 b03c
00000080: 99e9 8e3d b0f4 813d 4f3e 34bc b9eb b9bc
00000090: 1f8a 073d 76d6 1a3d 3dd0 443d 4262 39bd
000000a0: 6612 95bb 30e0 883c 788e 7e3c f142 13bd
000000b0: 8c3b 42bd 80ef 85bd b0e9 a93c 8b6b abbc
000000c0: c42f 41bc 9342 423c 2ec3 42bd cf18 453c
000000d0: c1e7 563c f4a1 103d a5b9 a8ba 1a2e 0bbd
000000e0: 8ae8 383d 18a8 13bc cb58 a63b 35bb e2bc
000000f0: 9084 0cbc d2ef eb3b 428a d53c 1d1e 563d
00000100: c271 463c 343d 73bd 1464 05bd 92aa 7d3d
00000110: d43a 573d 06c9 afbc 6898 713d 703c f43c
00000120: bb9f a9bc 61f2 e83b 3a02 163a 6285 03bd
00000130: 78af 823b bb9b 75bc 8a23 8dbd 435f 463d
00000140: 0b86 a93b 8d52 7abb 5923 f03c f36c 3abd
00000150: cded 8cbc ce13 4c3c 520b 27bd ff41 713d
00000160: e398 843d b887 2b3c 79cf c93c b131 2c3b
00000170: 0714 123d 596c aebc 4bba a1bc 4165 023c
00000180: 24b5 933c bcf4 b13b 6988 94bc f73b 543d
00000190: 0c5e 32bc b2c4 4fbc 1600 eebc 4e0d 783c
000001a0: 79d8 d53b 8b91 023d f5e2 86bd c45d 7ebd
000001b0: 0830 28bd 76e1 23bd 13e4 2bbd 0103 d8bc
000001c0: 007d 71bd f2d8 aa3c c695 52bd 24a1 f4bc
000001d0: 1a27 43bd 6b9c 99bc 91e1 863d 6cd1 823c
000001e0: 7c7a 1bbd 4429 9b3c 9444 b2bc 481c 283d
000001f0: d1d2 ddba b7cc 56bc c6da 96ba 2ec1 eb3c
00000200: 33ca 56bc 1e3f 77bc 42ee 06bd 6ac2 a7bc
00000210: cc31 7ebc 172e 933c 3106 cdbc 9ed5 17bd
00000220: 5fe5 19bb 7f85 8b3a 463c fdbc 65c8 5e3a
00000230: 0346 d8b9 1768 b33c 2532 4f3d 820e a0bb
00000240: 4bb1 2ebc accc 84bc 45b5 cbbc 8f38 05bd
00000250: aecd db38 8d87 61bb c228 bc3a 6a36 11bd
00000260: 0738 c03c e5d7 2abd 6e1c 1f3c 0275 553d
00000270: 73d6 33bd cea6 903c 44bf 72bd 3cda 36bc
00000280: 3f15 3fbd 14ad cabc 632b 8f3d 4a43 2cbc
00000290: 96ba 1bbd 2243 dfbc b859 4a3c 969b 3b3c
000002a0: 49f9 cd3c 247e 29bd 7532 023d b378 5f3d
000002b0: ae67 6f3d 824c 02bd 8744 01bd ef0e 76bd
000002c0: ba3a 013c 4e3e ed37 7e56 8bbd a300 193d
000002d0: 25ef 00bd 1eda 3f3c e967 bfbc 1bc8 1f3d
000002e0: c3e1 0b3d 00df 693d a397 033d 69c6 76bc
000002f0: 17d0 1f3c d0fa 113d 7005 7dbc 30f6 0b3c
00000300: 3fdc 6e3c 2ac6 b1bc 23ee 8abd 11e6 5b3d
00000310: 1d18 0d3d c57a 733d a474 86b9 524d 48bb
00000320: 3249 4b3c c3f2 043d c489 71bc c916 81bd
00000330: 12d6 81bc 26de 8fbc 0d5b 423b 4aee d5bb
00000340: ec56 d33b 0c52 30bb 409f 5b3d 1987 813d
00000350: ae3b 1738 4145 8a3c e503 4b3d 6586 0f3d
00000360: 6d73 58bc aee8 1abd 6c84 3ebd b994 b6bc
00000370: 8c08 afbc 5a3a 8bba f129 153b 79b3 86bc
00000380: 38aa 20bb 7034 fc3a 35a3 92bc 5ab9 15bc
00000390: fa09 5dbd 9594 4fbc 8117 8d3c 208d 80bd
000003a0: 2394 2fbc e174 7f3d bb22 c63c 1a8a f83c
000003b0: efc7 32bc ea12 14bd 50cf bbba 2925 75bd
000003c0: 55bc 76bd 920d 32bd 0a33 1f3d 3d5f 73bc
000003d0: 9ebe 463d 2071 6dbd c38a fa3b c37f 843c
000003e0: 5967 0bba a13a e1bb a30a a03a 9ab7 ddbc
000003f0: 0819 8abd d4c3 12bd bc73 5cbc 1e86 b0bc
