lstm_model_weights_fixed/epoch_9/projector_weight.npy (npy, 262272 bytes, 1 tensors)

array f4 [128, 512]
-0.031015333 -0.03722873 -0.042181544 -0.033832036 -0.014775713 -0.055696696 0.008798822 0.017598758
-0.0022325239 -0.04949424 0.070663214 0.032156166 0.027535869 -0.036001865 -0.06164399 -0.0446665
-0.085799865 -0.00023994067 -0.050176136 -0.0075626397 -0.036644083 0.05151393 0.062127944 -0.010156328
0.027001053 0.080011904 0.040914528 -0.04188637 -0.022855151 -0.011269309 0.029385367 0.037377022
0.07636326 0.07473051 -0.007836108 -0.03021508 0.03663463 0.042592615 0.055157196 -0.046902955
-0.004976698 0.010736715 0.022498617 -0.041333538 -0.05506948 -0.07085171 0.023849843 -0.017632378
-0.018903881 0.013007067 -0.052894384 0.016880842 0.0170168 0.03820503 -0.018058177 -0.04530699
0.048628084 -0.018792108 -0.0027017966 -0.027259946 -0.003421576 0.0074140285 0.033502538 0.053900573
0.018988572 -0.07104493 -0.030294536 0.065661065 0.057623986 -0.038748894 0.06797472 0.03406444
-0.021651696 2.8205228e-05 0.0023119035 -0.037560172 0.020353736 -0.01357101 -0.07314854 0.04841436
0.017243117 0.0062481854 0.037531666 -0.050581183 -0.029717715 0.009981784 -0.04962117 0.06138348
0.06909639 0.006238007 0.04042581 -0.009959887 0.04053472 -0.010860477 -0.02285169 0.01434324
0.020841701 0.002895253 -0.00993493 0.04791642 -0.0076338123 -0.0065103057 -0.032472994 0.012290318
0.0049738376 0.03307233 -0.07471505 -0.0657157 -0.04252583 -0.037832003 -0.05767718 -0.031711884
-0.07617746 0.029753296 -0.061259296 -0.035223767 -0.061705783 -0.027373578 0.06774035 0.021441324
-0.03505523 0.02029535 -0.030067129 0.031808797 -0.006309253 -0.011475481 -0.013821007 0.03706317
-0.014793891 -0.026856814 -0.03847393 -0.029691081 -0.031979147 0.014056973 -0.037953224 -0.03196846
0.0051285145 -0.001056365 -0.03311191 0.017549403 0.0045715678 0.02823689 0.056441247 -0.008154968
-0.0146050425 -0.020013472 -0.015541891 -0.044036306 -0.006711265 0.014524309 0.005505202 -0.035107665
0.031228263 -0.040971715 -0.0067964853 0.05584816 -0.040198777 -0.006187231 -0.06285296 0.0030774726
-0.050539277 -0.028030988 0.07513338 0.002921047 -0.049593598 -0.028262235 0.013042318 -0.00018932496
0.03150433 -0.045116547 0.039534535 0.064076975 0.06021181 -0.03887862 -0.02546706 -0.0629849
-0.0076884087 0.0008198628 -0.0769357 0.041509155 -0.046554722 0.005663597 -0.013575079 0.046962377
0.043864354 0.061523713 0.03319598 -0.017495168 0.015377212 0.046271425 -0.028223338 0.017507771
0.010937151 -0.024366757 -0.06746184 0.06855556 0.037776064 0.06470574 -0.0077582346 -0.023624914
0.016108787 0.03863303 -0.018102797 -0.06753254 -0.013360378 -0.022748237 -0.0013869917 -0.006457804
0.01508694 0.0054097823 0.058034386 0.069523335 0.0052667465 0.0064457213 0.050392672 0.045182765
-0.008223323 -0.034005664 -0.0629082 -0.017674118 -0.021474987 0.0031831719 0.006241438 -0.020021707
0.0056989617 0.011393234 -0.024066495 -0.007627467 -0.06198608 -0.0055383574 0.023495698 -0.0708005
-0.0065251393 0.06508229 0.027586842 0.044030163 -0.012280804 -0.041552793 -0.0023547648 -0.0757355
-0.066685185 -0.047984198 0.037785295 -0.017122243 0.055125386 -0.06341888 0.016592167 0.011734423
-0.008405984 0.001984088 0.012493593 -0.033474173 -0.07294688 -0.046331964 -0.011402505 -0.025261763
00000000: de13 febc 277d 18bd 8ec6 2cbd 7693 0abd
00000010: d515 72bc 3822 64bd ef28 103c 452b 903c
00000020: 894f 12bb 79ba 4abd e0b7 903d 2fb6 033d
00000030: e792 e13c b176 13bd 697e 7cbd 38f4 36bd
00000040: d7b7 afbd 9598 7bb9 7e85 4dbd 05d0 f7bb
00000050: 1b18 16bd 4500 533d df79 7e3d ba66 26bc
00000060: 5031 dd3c 48dd a33d fe95 273d 0b91 2bbd
00000070: ba3a bbbc e8a2 38bc 95b9 f03c a618 193d
00000080: 5764 9c3d 4f0c 993d 0563 00bc 9e85 f7bc
00000090: 320e 163d 9875 2e3d 83ec 613d 501d 40bd
000000a0: 9213 a3bb 0ce9 2f3c 054f b83c 5b4d 29bd
000000b0: 8990 61bd b41a 91bd bf60 c33c c771 90bc
000000c0: 50dc 9abc 981b 553c c8a7 58bd b149 8a3c
000000d0: d166 8b3c e17c 1c3d beee 93bc d393 39bd
000000e0: 3e2e 473d e8f1 99bc a010 31bb 4050 dfbc
000000f0: 853c 60bb 61f1 f23b f539 093d d9c6 5c3d
00000100: ec8d 9b3c 0180 91bd 3f2c f8bc 4f79 863d
00000110: 2107 6c3d 29b7 1ebd 5436 8b3d 2787 0b3d
00000120: e65e b1bc 449a ec37 4e83 173b b2d8 19bd
00000130: e1bc a63c f158 5ebc e7ce 95bd 234e 463d
00000140: 7041 8d3c 94bd cc3b ceba 193d 372e 4fbd
00000150: 9172 f3bc a38a 233c 913f 4bbd 3e6d 7b3d
00000160: 6882 8d3d 3268 cc3b 8995 253d cb2e 23bc
00000170: bc07 263d 24f0 31bc 7833 bbbc e9ff 6a3c
00000180: 37bc aa3c 49be 3d3b 1ec6 22bc 0244 443d
00000190: 0f25 fabb 6754 d5bb 6702 05bd 545d 493c
000001a0: 93fb a23b da76 073d 3404 99bd f495 86bd
000001b0: 912f 2ebd bbf5 1abd e83e 6cbd 52e4 01bd
000001c0: ee02 9cbd 2fbd f33c 07eb 7abd cc46 10bd
000001d0: 34bf 7cbd 8e3e e0bc 74bb 8a3d b7a5 af3c
000001e0: 1396 0fbd 6f42 a63c 574f f6bc f149 023d
000001f0: dabd cebb a803 3cbc 8171 62bc 8dcf 173d
00000200: 1462 72bc d202 dcbc d796 1dbd b63a f3bc
00000210: 91fc 02bd 384f 663c d774 1bbd 5cf1 02bd
00000220: 190d a83b ba75 8aba 5ba0 07bd c4c3 8f3c
00000230: 17cd 953b 0d51 e73c f02e 673d 6a9c 05bc
00000240: fd49 6fbc 4bf3 a3bc 6aa3 7ebc 6a5f 34bd
00000250: 2cea dbbb 5ef7 6d3c fb64 b43b 0ecd 0fbd
00000260: 6ad2 ff3c f5d1 27bd 0db5 debb 0ac1 643d
00000270: 79a7 24bd 41be cabb 0db9 80bd 6caf 493b
00000280: 4602 4fbd 3ea1 e5bc 88df 993d 096f 3f3b
00000290: a822 4bbd 3486 e7bc 72af 553c 8885 46b9
000002a0: af0a 013d 21cc 38bd f7ee 213d ca3a 833d
000002b0: a9a0 763d 303f 1fbd 4ca0 d0bc 3afe 80bd
000002c0: 0cef fbbb 10ec 563a 7790 9dbd 8105 2a3d
000002d0: 2ab0 3ebd b295 b93b 026a 5ebc 9f5b 403d
000002e0: 1cab 333d 4a00 7c3d 82f8 073d 0752 8fbc
000002f0: b4f0 7b3c 1b87 3d3d a134 e7bc 756c 8f3c
00000300: bc31 333c cb9c c7bc 6f29 8abd dc66 8c3d
00000310: 13bb 1a3d 7184 843d ca38 febb 0989 c1bc
00000320: 93f6 833c ab3d 1e3d 514c 94bc 804e 8abd
00000330: 7de5 5abc 835a babc b8cb b5ba fc9b d3bb
00000340: 362f 773c 8b44 b13b 77b5 6d3d 4062 8e3d
00000350: ac94 ac3b a136 d33b 8c68 4e3d 9011 393d
00000360: 1ebb 06bc 8649 0bbd 04d6 80bd 50c9 90bc
00000370: 50ec afbc c39c 503b fa84 cc3b 9004 a4bc
00000380: 5bbe ba3b b0aa 3a3c 1927 c5bc d5ef f9bb
00000390: 1ee5 7dbd 1c7b b5bb 0d7a c03c daff 90bd
000003a0: d6d0 d5bb dd49 853d cdfd e13c f958 343d
000003b0: 6d35 49bc 4333 2abd 6652 1abb 371b 9bbd
000003c0: 3e92 88bd 148b 44bd c1c4 1a3d f243 8cbc
000003d0: 28cb 613d c2e1 81bd 4cec 873c bd41 403c
000003e0: 41b9 09bc 7907 023b edb1 4c3c 371c 09bd
000003f0: 2c65 95bd 96c6 3dbd 93d1 3abc c2f1 cebc
